gnn_model_state.pt (torch, 528280 bytes, 6 tensors)

conv1.lin_l.weight f4 [128, 384]
000000 ab 7e dc 3d 6d af a0 3d 01 69 48 bd 26 35 52 bd
       0.107663475 0.0784596 -0.048928265 -0.051320218
000010 4e dc b9 bd b4 47 a5 3d 24 5c 4a bd 61 19 ec 3d
       -0.09075223 0.08070317 -0.04940428 0.11528278
000020 50 5e bb bc 49 6a 74 bc 34 40 6e 3d 26 cb 83 3c
       -0.02287212 -0.0149179185 0.058166698 0.01608808
000030 e6 14 e4 bc 60 0e 52 bd 35 60 a4 3d 9c 82 6b 3d
       -0.027841996 -0.05128324 0.080261625 0.057497606
000040 e5 16 6a bc 9d 96 71 bd 80 bb 02 3e f4 00 01 3d
       -0.014287685 -0.058981527 0.12766838 0.03149505
000050 e7 04 89 3d 19 75 47 bd d9 54 82 3c ea 76 50 bd
       0.06690388 -0.048695657 0.0159096 -0.050894655
000060 e8 0d 31 bd 16 a6 8e 3c 7c 46 91 bd ab f4 fd 3d
       -0.043226153 0.01741318 -0.07093522 0.12400182
000070 4e 45 82 3c c4 e4 3c bd ea e2 26 bd 33 79 01 3c
       0.015902188 -0.046116605 -0.040743746 0.007902431
000080 4f 1c 4e bd 65 60 62 3d bc 0f 8f 3d 32 de da bd
       -0.050319966 0.05526771 0.06985423 -0.10686912
000090 1b 3d df 3d d4 0d e8 3c f7 ed 84 bd fe 78 a8 bd
       0.10900327 0.028326906 -0.06490701 -0.082262024
0000a0 9d 72 2f bd d8 45 dc bd 96 34 ba 3d c0 88 c0 bd
       -0.042833913 -0.10755509 0.09092061 -0.09401083
0000b0 5c 7f d5 bd 1e b6 e8 bd af 3d 70 bd 3d be 2b 3d
       -0.104246825 -0.11362861 -0.058652576 0.041929472
0000c0 b3 50 35 3d a6 d8 46 3d 86 cd 8a 3d 27 7e 62 bd
       0.044266414 0.048546456 0.06777482 -0.05529609
0000d0 75 03 ca 3d c9 0f 23 3c fe 6d 8d 3b 04 18 8f 3d
       0.098639406 0.009952494 0.0043160906 0.069870025
0000e0 ee 92 a1 3b 7d 67 2c 3d 38 77 9f bd ea 81 c5 bd
       0.0049308455 0.04209088 -0.07786411 -0.0964392
0000f0 60 68 78 bd 78 e4 a5 3c c7 d0 a6 bc 56 33 ba 3d
       -0.060646415 0.020250544 -0.020363225 0.09091823
000100 7e b9 63 bd 3d a7 e1 bc d1 6a 68 bd 96 1e db bc
       -0.05559682 -0.027545566 -0.056742493 -0.026747983
000110 b5 5f 96 3d f4 20 ab bd 59 cf 1e 3d 8b fa 53 bd
       0.073424734 -0.08355895 0.03877196 -0.05175261
000120 71 08 bd 3d e4 5e 48 bd 62 92 ab bd 48 18 5c bd
       0.09230126 -0.04891862 -0.0837753 -0.053734094
000130 16 8a 08 bd fb 83 de 3d c1 55 d5 bd 73 ab 3e 3d
       -0.033334814 0.10865017 -0.10416747 0.046550225
000140 12 16 b7 3d ac a0 ac bc 6a 6c 08 3d bc b1 ba 3d
       0.089397565 -0.021072708 0.033306517 0.091159314
000150 4a 06 6e bd 85 45 da 3d 1b 85 44 bd 56 ac 11 bd
       -0.058111466 0.10657791 -0.0479785 -0.035564743
000160 d0 09 9f bd a2 e2 8b 3d d4 14 99 3d 35 4d 03 bd
       -0.077655435 0.06830336 0.07474676 -0.032056052
000170 a0 4c 35 3d 53 15 fc 3d df 48 cb 3c 04 83 5f bc
       0.04426253 0.12308755 0.024815021 -0.013642076
000180 bb 70 ac bd 72 8e 94 3d 39 4a 85 bd 95 92 81 bd
       -0.08419939 0.07253732 -0.065082975 -0.063267864
000190 4c 87 9b 3d a2 bd 82 bc 10 db 9e bd f1 75 9f 3d
       0.07594165 -0.015959565 -0.077566266 0.077861674
0001a0 53 46 a2 bd a4 29 18 3d fb a6 8d bd 05 e3 02 bd
       -0.079235695 0.037149087 -0.069166146 -0.031954784
0001b0 0d 1d f2 bc 1d 31 70 3d fe ea 02 be ab b0 21 bd
       -0.029554868 0.058640588 -0.12784955 -0.039475124
0001c0 2f cf a2 bd d7 90 d9 bc 72 48 5b 3d 36 e6 e1 3d
       -0.079496734 -0.026558323 0.053535886 0.110302374
0001d0 d2 ca ab bd 3b b3 b4 3d 78 8f cb 3c 26 8b 01 bd
       -0.08388294 0.08823248 0.024848685 -0.031626843
0001e0 83 3a 15 bd 92 7f 20 3c b3 3b 12 bd 94 44 12 bd
       -0.036432754 0.00979604 -0.035701465 -0.035709932
0001f0 b8 fb e8 bc ca cb 88 bd 45 db d8 3d d9 7c 07 bd
       -0.028440341 -0.06679495 0.10588697 -0.03307805
000200 6b 14 e1 bd 07 65 e5 bc 99 48 9b bd 4c 52 a3 3d
       -0.109902225 -0.028002275 -0.07582206 0.07974681
000210 d2 28 48 bd aa 5c 12 bd 90 24 70 3a 2b d9 51 3d
       -0.048867054 -0.035732903 0.00091607217 0.0512325
000220 e9 70 96 3c 30 da 42 bd a5 60 a0 3d f6 71 3b bd
       0.018364387 -0.04757136 0.078309335 -0.04576298
000230 5a 61 c3 3d f5 33 f2 bc 92 f3 a6 bd 98 4b f0 3d
       0.09540053 -0.02956579 -0.08151926 0.11733168
000240 ea d5 83 3d 0e d7 17 bd 63 1b 84 3d c2 72 d8 3c
       0.06437285 -0.037070327 0.06450536 0.026421908
000250 51 1b a5 bd 4f 46 31 3d 70 87 c4 3d 39 b7 7b 3d
       -0.08061851 0.043279942 0.09596145 0.06145403
000260 0e 2c c2 3d df b1 b6 3d 72 76 13 bd fe 95 7c 3d
       0.09481059 0.08920645 -0.03600163 0.06166648
000270 aa 76 51 bc 01 8a 87 bd d4 21 32 3d ab ce 6d bd
       -0.012784639 -0.06618119 0.043489292 -0.058058422
000280 7d f3 30 3d 95 21 38 bd c8 8b b4 bd 73 86 19 3c
       0.04320096 -0.0449539 -0.08815724 0.009370434
000290 e5 ae 96 3d c1 a2 06 3d 5a 43 88 3d ea 6b a4 3d
       0.07357577 0.032870058 0.06653471 0.080283955
0002a0 8c bb e3 3d d7 db 55 bd de ab 7a bd 01 60 6c 3d
       0.11119756 -0.05221161 -0.06119906 0.057708744
0002b0 53 95 94 3d 21 ff e3 3d ef 3c bd bd eb cc cf 3c
       0.07255044 0.11132646 -0.09240138 0.025366267
0002c0 83 e4 f5 3d 29 ab b0 3d 09 ea 4a bd 93 d3 b5 3d
       0.12006476 0.08626396 -0.0495396 0.08878245
0002d0 fd 75 93 3b e6 a8 d2 3d f3 36 d2 3d 2a c5 b0 bd
       0.0045001493 0.10286121 0.10264387 -0.08631356
0002e0 c8 ba 61 3d e1 cd 24 3c b3 dc 62 bd f9 61 8b bd
       0.05510977 0.010058851 -0.055386256 -0.06805796
0002f0 5b 40 af 3c 95 1f 8b 3d 1f e6 9b bd 9f 78 66 3d
       0.021392992 0.06793133 -0.076122515 0.056267377
000300 e2 78 9d 3c a4 83 79 bd 8a 2e 56 3d 97 4d 11 3d
       0.01922268 -0.060916558 0.052290477 0.035474386
000310 15 8d 95 bd 23 b2 d2 3d 6f 0f 00 bd 96 79 b9 bd
       -0.073023 0.10287883 -0.03126472 -0.09056394
000320 ad 53 8d 3d e1 20 3e 3d f5 5c c0 bd 20 1b b8 bb
       0.069007255 0.046418075 -0.0939273 -0.005618468
000330 97 24 aa bc ff b3 98 3c 5c 5e 87 3d d9 eb 62 3c
       -0.0207694 0.018640516 0.066097945 0.013850176
000340 2b 91 5b 3d 78 72 03 3d e3 c6 f3 3c 2f b9 ba 3d
       0.05360524 0.032091588 0.029757923 0.09117352
000350 ec a9 68 3d 58 91 9e 3d 0a a9 d1 bd 01 20 67 3d
       0.056802675 0.07742566 -0.1023732 0.056427006
000360 ef 4b cb 3d 22 de be 3d 9e 5a a6 3c 0c 43 9f 3d
       0.099265926 0.09319712 0.020306882 0.0777646
000370 c8 19 d3 3d 3a 3a a1 bd e2 bf fc 3d 01 3d d7 bc
       0.10307652 -0.07872434 0.12341286 -0.026274206
000380 c3 b4 95 3d c2 7a 22 3d 04 10 c3 bc 63 37 e3 bd
       0.07309868 0.039667852 -0.023811348 -0.110945486
000390 66 b3 96 bd 0e e6 0a 3d e8 21 1e 3d df 50 a2 3d
       -0.07358436 0.033910803 0.038606554 0.07925581
0003a0 17 e8 54 bd 6a 20 cf 3d ec ab 94 3d ca 16 a0 3d
       -0.05197915 0.10113604 0.07259354 0.07816847
0003b0 f2 5f c9 bd d3 1c 32 3c d5 1c 8f bd d9 8d 02 bd
       -0.09832753 0.01087113 -0.06987921 -0.031873558
0003c0 35 7b 87 bd 01 60 ac bc 06 79 d3 3d 68 18 8d bd
       -0.06615297 -0.021041872 0.10325818 -0.06889421
0003d0 33 17 9f bd cc 4e 92 bd b6 74 1e 3d d0 6d a7 bd
       -0.07768097 -0.071439356 0.038685523 -0.08175242
0003e0 50 80 e5 3c 1f 78 d9 bd 1a bf 6d 3d 7f 6a c1 bd
       0.028015286 -0.106186144 0.058043577 -0.09444141
0003f0 76 59 a0 3c 4e 21 55 bd de 51 b3 3c d2 4a dd 3d
       0.019573908 -0.052033715 0.021889623 0.108052865

conv1.lin_l.bias f4 [128]
000000 c6 58 d3 bc 14 c6 6e bd ea 23 25 bb 89 f8 1c bc
       -0.025799166 -0.05829437 -0.0025198408 -0.00958074
000010 e8 87 b4 bd 65 5d a1 bd d5 07 b8 bd 1e 8f 62 bd
       -0.088149846 -0.07879142 -0.08985869 -0.05531227
000020 e9 f7 7c bd c4 06 76 bd bc 02 80 bd 5e cd 40 bd
       -0.061759863 -0.060065046 -0.062505215 -0.047070853
000030 90 85 b7 bd 73 ed de bd d0 2c 34 bd a4 2a bd bd
       -0.08961022 -0.108851336 -0.04398805 -0.09236649
000040 f1 18 20 bd 53 ed 93 bd 06 13 3f bd 58 47 dc 3b
       -0.039086286 -0.072230004 -0.046649 0.006722372
000050 88 04 0d bd e1 74 e0 bd 21 7e b8 bd bc 22 87 bd
       -0.03442815 -0.10959793 -0.09008432 -0.06598422
000060 b6 2d 91 bd ee 43 9d 3b 36 96 df bd 11 06 8d bd
       -0.07088797 0.0047993576 -0.10917322 -0.06885923
000070 c3 eb b2 bd e7 ae ad bd 72 28 2f bd f9 b5 25 bd
       -0.08736374 -0.084806256 -0.04276318 -0.040456746
000080 4a aa 99 bd 20 c1 ab bd 91 07 90 bd b8 70 5a bd
       -0.07503183 -0.08386445 -0.07032693 -0.053330153
000090 9d 2d b3 bc ce 62 a7 bd ef f6 46 bd 28 d1 3c bd
       -0.021872336 -0.081731424 -0.048575338 -0.046097904
0000a0 48 c1 d0 bc 06 79 c8 bb 60 c1 83 bd 17 de 86 bd
       -0.025482789 -0.0061179427 -0.06433368 -0.06585329
0000b0 82 56 9b bd e6 3e 4f bd 70 ee bb bd bd 6a 6b bd
       -0.075848594 -0.050597094 -0.09176338 -0.05747484
0000c0 26 ed 2b bc c2 af a3 bc 10 aa 7b bd 7f 72 51 bc
       -0.010493552 -0.019981269 -0.06144148 -0.012783646
0000d0 e2 c2 fd bc d3 1d d3 bd ae 7b a9 bd 6a 3f 5c 3c
       -0.030976716 -0.10308423 -0.08275543 0.0134428535
0000e0 a6 c2 84 bd 3c 4c 94 bd 20 60 f5 bc 14 69 32 bd
       -0.06482439 -0.07241103 -0.029953063 -0.04355724
0000f0 5b 80 ba bd 96 eb 19 bd fb d9 7f bc 8a a4 b2 bd
       -0.09106513 -0.037578188 -0.015615935 -0.087227896
000100 a7 b9 a2 bd 21 26 8a bd 81 41 4b bd e8 e2 c5 bd
       -0.079455666 -0.06745554 -0.049623016 -0.096624196
000110 48 3a 25 bd d3 f6 7b bd 6b 3c cb bd a9 24 44 bd
       -0.040338784 -0.061514687 -0.09923633 -0.047886524
000120 c6 40 c4 bd 72 e5 8d bd 33 24 3b bd 4f 43 b9 bd
       -0.09582667 -0.06928529 -0.04568882 -0.09046041
000130 ef 5e c2 bc 93 33 a6 bd bc 84 1f bd a5 d8 6f bd
       -0.023726908 -0.08115306 -0.038944945 -0.058556218
000140 f9 49 ca bb b2 b3 df bd a8 d5 9e bd d6 f7 ef bc
       -0.006173369 -0.10922946 -0.077555954 -0.029292982
000150 ba c8 4f bd a4 0a cd bd 6e e4 92 bd 69 cc 0e bd
       -0.050728537 -0.10011795 -0.07172476 -0.03486291
000160 f8 9c 7d bd 3e 7d 8e bd f4 d7 83 bd 5f 9d 66 bd
       -0.061917275 -0.06957482 -0.06437674 -0.056302425
000170 87 ad ae bc 7a 76 11 bd d6 41 c1 bc f6 3b 38 bd
       -0.021322979 -0.03551338 -0.023590963 -0.04497906
000180 b6 91 9f bc c6 53 0f bd 2a f7 ae bd 26 85 81 bd
       -0.01947866 -0.034992002 -0.085432366 -0.06324224
000190 89 a5 ca bd 9c d6 a4 bd 62 1a c7 bd 1f 6f 19 bd
       -0.098948546 -0.08048746 -0.09721829 -0.03745949
0001a0 50 44 89 bd 68 2f 0c bd 86 41 8a bd 5c a7 fc bc
       -0.06702483 -0.034224898 -0.06750779 -0.030841522
0001b0 69 8a bd bd 12 3e 1f bd 2c 23 19 bd f0 19 8c bd
       -0.09254915 -0.038877554 -0.03738706 -0.06840885
0001c0 a5 ab b0 bd c4 26 44 bc 0b 8d d7 bd 4e 8a 20 bd
       -0.086264886 -0.011972133 -0.10524949 -0.039194398
0001d0 eb 41 54 bd 6f 2e ae bc c5 20 b6 bd e9 46 2d bd
       -0.051820677 -0.021262376 -0.08892969 -0.042303953
0001e0 61 ba 59 bd d6 2f 41 bd ef 23 09 bd b3 53 89 bd
       -0.05315626 -0.04716476 -0.033481535 -0.067054175
0001f0 e0 0c 49 bd 7e ad 5c bd 28 5d af bd 95 d4 4f bd
       -0.049084544 -0.053876393 -0.0856269 -0.050739843

conv1.lin_r.weight f4 [128, 384]
000000 22 73 d5 3d c2 08 e6 3c e6 c9 e1 bd c4 91 a0 bd
       0.104223505 0.028080348 -0.11024837 -0.078403026
000010 68 49 9c bd 98 6e 9f 3c f9 e2 21 3d e5 92 a5 3d
       -0.07631189 0.019461915 0.0395231 0.080846585
000020 c5 6a aa bd 5e 8b e6 3c 58 e8 e4 3d 17 b8 9c 3d
       -0.08321146 0.028142627 0.111771286 0.076523
000030 4b 8f c8 bd ab 74 da bd f8 85 a8 3c bb fb 28 3c
       -0.09792956 -0.10666784 0.020571694 0.0103139235
000040 d7 89 5c bd 74 75 86 bc 59 7d 48 3d ae 23 e8 3c
       -0.05384239 -0.016413428 0.048947666 0.028337326
000050 d1 4f 34 bd 3f 08 10 bd 31 6e 99 bd d2 58 90 bd
       -0.04402143 -0.035164114 -0.074917205 -0.07048191
000060 8e 9e f2 bc cb 61 1e 3c 7f 54 96 bd 81 c0 f6 3c
       -0.02961662 0.00966687 -0.07340335 0.03012109
000070 db 49 ba bb b3 fd ce 3d 02 12 a4 bd 20 02 2b 3d
       -0.005685074 0.10106983 -0.08011247 0.041750073
000080 30 8f 04 3d 6e 98 92 3c ab f0 c9 3c 0e cd 5a bd
       0.032363117 0.01789495 0.024650892 -0.05341821
000090 14 a0 e4 3c d8 e4 33 bd e4 92 65 3d f1 96 14 bd
       0.027908362 -0.043919414 0.05604829 -0.03627676
0000a0 63 7b e3 bd 06 63 74 bd 4a 5a 7f bd 1e 07 ac bd
       -0.111075185 -0.05966475 -0.062341966 -0.08399795
0000b0 89 fb 77 bd 38 f8 81 bd 82 da 85 bd 60 19 d3 3d
       -0.060542617 -0.06346172 -0.06535818 0.10307574
0000c0 3e 33 99 bc 33 a2 c2 bd 29 c8 11 3d 08 ad dc 3d
       -0.018701192 -0.09503593 0.03559128 0.107751906
0000d0 e0 7b bd 3d da c0 f2 bd 22 98 ad 3d 0a 6c 08 3d
       0.09252143 -0.1185319 0.08476283 0.03330616
0000e0 db 1b be bd 39 db 24 3d 27 32 95 bd 1b b2 bd bc
       -0.09282657 0.04024813 -0.072849564 -0.023156216
0000f0 c9 28 b6 3d e3 51 a8 3d 80 4c 8e 3c 42 57 83 3d
       0.08894498 0.08218744 0.017370462 0.064131275
000100 ba 33 82 3c e8 55 c6 3d 8c c1 4d bd b2 f6 9c bd
       0.015893806 0.09684354 -0.05023341 -0.07664241
000110 11 62 13 3d a5 02 e6 bd 01 11 20 3d 3a 35 8a bc
       0.035982195 -0.11230973 0.039078716 -0.016871084
000120 40 52 72 3d d8 3f 97 bd 2f 38 bb bd 70 e5 e1 bd
       0.05916047 -0.07385224 -0.091415755 -0.1103009
000130 3a 6f 17 bd 01 ea c0 3c 8b 53 9f bd 2b 67 a2 3d
       -0.03697131 0.023549082 -0.077796064 0.07929834
000140 4f ee 38 3c ba ee c4 bd 8f 86 e3 bd e5 a0 8e 3d
       0.011287286 -0.09615846 -0.111096494 0.06964282
000150 95 a7 98 bd fd 3b fa 3c a0 b4 3d 3d 9d b9 8f bd
       -0.07453839 0.030546183 0.046314836 -0.07017825
000160 4b f8 07 bd aa 14 ac 3c 8b ce ce 3c 7a ee 55 3d
       -0.033195775 0.021005947 0.025244972 0.052229382
000170 1e 40 e9 3b 37 bd 06 3d 0e 42 6a 3c ed 7b de bd
       0.007118239 0.032895293 0.014297975 -0.10863481
000180 85 2c 0b bd 72 97 80 3d 7e 1b 0c bc c3 52 81 bc
       -0.033978004 0.06278886 -0.0085514765 -0.015786534
000190 d8 45 b3 3d 51 10 5f bd c8 d1 aa bd 9c f0 77 3d
       0.08753556 -0.05445892 -0.08340794 0.060532197
0001a0 5b fc 9c bd 02 14 c9 3d 29 2f 07 bd a8 5f 93 bd
       -0.076653205 0.09818269 -0.03300396 -0.07195979
0001b0 1a 3d 54 bd 33 b6 35 3d f2 c4 5a bd 83 73 25 bd
       -0.051816083 0.04436321 -0.053410478 -0.040393364
0001c0 24 3a 4a bd 4a 2c dd bd 5e ca 08 3c f2 e6 bc 3d
       -0.049371853 -0.10799463 0.008349029 0.09223737
0001d0 2f 34 43 bd 1c ee b7 3d 07 bb a2 bd 0d 26 1c bd
       -0.047657188 0.08980963 -0.07945829 -0.038122226
0001e0 ff 1b d4 3d 0a d8 22 3d c3 60 5c bd 1d 2e 67 bd
       0.10356902 0.039756812 -0.053803217 -0.05644046
0001f0 e3 3e d1 bd 37 b4 0d 3d 28 38 5b 3d 9d 58 03 bd
       -0.10217073 0.034595694 0.05352035 -0.03206693
000200 83 b4 9c bd f8 10 81 bd b5 48 8e bd 10 21 2d 3d
       -0.076516174 -0.06302065 -0.069474615 0.04226786
000210 cd ec 9f bd 7e 08 f2 bc 91 e3 55 3d 63 05 a0 bd
       -0.07808838 -0.029545065 0.052218977 -0.078135274
000220 ba 0d c3 3d 65 ee 9a bd b3 ed 83 3d 28 61 b2 bd
       0.095241025 -0.075650014 0.06441822 -0.08709937
000230 b2 a8 04 3d 60 8f 83 bd f9 65 d7 bd e1 f6 87 3d
       0.032387443 -0.06423831 -0.105174966 0.06638885
000240 53 c2 cd 3d a8 8e 22 bd 9c 0f 87 3c e5 6e ae 3d
       0.1004683 -0.03968683 0.016486935 0.08517245
000250 48 6e 91 bd 27 6e 18 3d 9d 99 7d 3d af 15 5c 3d
       -0.071011126 0.037214424 0.061914075 0.053731617
000260 93 06 ca 3d ad 43 97 3d 8a e6 70 bd dd 1a b7 3d
       0.09864535 0.07385955 -0.05881361 0.08940671
000270 79 fa 36 bd d5 a5 47 bd 14 f2 97 3d 48 36 a4 bc
       -0.044672463 -0.048742134 0.074192196 -0.020045415
000280 84 a2 9f bc a5 c5 e8 bc ca b2 b2 bd ba a6 e2 3c
       -0.019486673 -0.028414557 -0.087255076 0.027667392
000290 19 2e ac 3d 55 72 de 3d 21 8f 5a 3d 0f 2f e3 3c
       0.0840723 0.10861651 0.053359155 0.0277324
0002a0 d9 72 b8 3d fe af e2 bd 17 de 81 bd 20 63 a8 3d
       0.090062805 -0.11068724 -0.063411884 0.082220316
0002b0 81 a3 ae 3d ca 89 d3 3d 00 cb cc bd a0 67 4c bd
       0.0852728 0.103290156 -0.09999657 -0.049903512
0002c0 44 c1 72 3d cc a0 60 3d 80 2f 1b bd be 4f f8 bd
       0.059266344 0.054840848 -0.037887096 -0.121245846
0002d0 7d a9 ef 3d e7 26 83 3d 20 1c a3 3d 30 47 4c bd
       0.11702249 0.064039044 0.07964349 -0.049872577
0002e0 5c c6 e3 bd b0 28 39 bd b4 bb 5c bd 03 71 a0 bd
       -0.111218184 -0.04520482 -0.053889945 -0.07834055
0002f0 df aa 83 3d 79 30 e4 bd 97 f7 f1 bc 8f 94 96 bd
       0.064290754 -0.11142058 -0.029537005 -0.07352554
000300 44 33 0f bd 23 d7 dd bd 6e a7 36 3d 25 5b 6b bd
       -0.034961 -0.1083205 0.044593267 -0.05745997
000310 90 a2 5d bd c4 c6 89 3d 3f d9 8d bc 4a 6e 80 bd
       -0.05411011 0.06727365 -0.017315505 -0.06271036
000320 ff 57 40 3d 35 09 3a 3d 5e 3e b3 bd e1 6f 0f 3d
       0.04695892 0.045418937 -0.0875213 0.035018805
000330 c1 74 cd bd 33 46 84 3d 9a 76 09 bd 76 69 a2 bd
       -0.10032035 0.06458702 -0.033560373 -0.07930271
000340 cd 5c 82 3d 38 5d 57 3d 98 da a1 3d 74 de 55 3d
       0.063653566 0.052579135 0.079030216 0.0522141
000350 11 93 46 3d a7 08 e9 3d 51 8e ad bd 79 42 90 3d
       0.048480097 0.113786034 -0.0847441 0.07043929
000360 c3 a9 8b 3c b3 b4 af 3d 2c 81 bc 3d 42 49 0e 3d
       0.017048722 0.085793875 0.09204325 0.034737833
000370 f2 84 7c 3c 5e a6 2d 3c a7 97 78 bd a1 57 a1 3c
       0.015412556 0.010598747 -0.060691502 0.019695105
000380 6b 5a 38 3d f1 97 c4 bd 25 cd 85 bd 4e b2 e9 bd
       0.045008104 -0.09599293 -0.06533269 -0.11410962
000390 0a 8f 3c 3b ab 6d bc 3d 34 19 89 3c 28 a3 84 bd
       0.0028771781 0.09200605 0.01673565 -0.06476432
0003a0 ce 44 a0 3d 4f 53 cc 3d 23 b9 2b 3d 15 81 8d 3d
       0.078256235 0.09976827 0.041924607 0.06909386
0003b0 68 22 d9 bd 70 cc df 3d ff a9 33 bd 3d 55 22 bd
       -0.106022656 0.10927665 -0.043863293 -0.03963207
0003c0 0f 23 6b 3d 7f b2 af bd 8e b7 8f 3d a9 6b 77 bd
       0.05740648 -0.08578967 0.07017432 -0.060405407
0003d0 de 5c 40 bd 64 83 b6 bd f4 5e 9d 3d 10 25 3f bd
       -0.046963565 -0.089117795 0.076841265 -0.046666205
0003e0 22 a9 fd 3d 69 17 1b bd 6f 4a a8 3c 8f 79 7c bd
       0.12385775 -0.037864123 0.020543305 -0.061639365
0003f0 b8 c0 5b 3d b2 cf 7c bd e3 c6 64 3d 88 f6 e4 3d
       0.053650588 -0.06172151 0.055853736 0.111798346

conv2.lin_l.weight f4 [128, 128]
000000 e5 81 bf 3c f3 74 c1 ba ee 4f 0a bd 21 9d 8f bc
       0.023377368 -0.0014759585 -0.033767633 -0.01753098
000010 7e eb bd 3d 30 fc cc bc 71 3f 7c bd 49 6a 20 bd
       0.09273432 -0.025022596 -0.06158394 -0.03916386
000020 75 13 eb 3c 3c a2 ae 3d ab 80 72 3d 31 b9 db bc
       0.028695801 0.085270375 0.05920474 -0.026821705
000030 a4 29 c4 bd 4a 3d d8 3c 46 7a b2 3d 75 6d 03 be
       -0.09578255 0.026396412 0.08714728 -0.12834723
000040 b9 37 85 3c 68 e3 aa bd 18 37 79 bc f9 00 81 3d
       0.016261922 -0.083441556 -0.015210889 0.06299014
000050 d8 ec 16 3d c4 d5 00 bd 28 fb 33 3c 7b 44 2c 3c
       0.036846966 -0.031453863 0.010985173 0.010514374
000060 c8 64 01 3e 3c 48 01 3e c6 6c ff 3c 33 d9 7b bc
       0.12636101 0.12625211 0.031179797 -0.015371609
000070 d9 29 dc bc b2 30 c1 3d 73 11 88 bc ef 75 b3 3c
       -0.026875423 0.09433116 -0.016609883 0.021906821
000080 1f 3d c9 3d ec e1 ba bc f0 4f 13 bd 3c 08 b2 3b
       0.09826111 -0.022812806 -0.035964906 0.0054331105
000090 38 ac e8 bc f1 c7 18 bc 06 a0 03 be c7 bf ed ba
       -0.028402433 -0.0093250135 -0.12854013 -0.0018138819
0000a0 4d a0 ab 3d 44 9b 13 3d 77 40 17 3d 54 e6 b5 bc
       0.08380184 0.036036745 0.036926713 -0.022204556
0000b0 49 29 a5 bc 6d 27 bb 3c 45 4d e3 bc b4 11 06 3e
       -0.020161288 0.022845948 -0.027746806 0.1309269
0000c0 b1 09 94 3c a6 1e 2c bd 6c 4c 51 3d 8d e6 fc bc
       0.018071027 -0.042021416 0.051098272 -0.030871654
0000d0 1d eb 70 3d 98 c5 6a 3c 28 22 0b 3e 92 8d 07 3e
       0.05881797 0.014329337 0.13587248 0.13237599
0000e0 7d 59 af 3b 9f 08 9c bc 4b 37 e0 3d 9b 6f f0 bd
       0.005351244 -0.01904708 0.10948046 -0.11740037
0000f0 e2 b4 8f bb 97 93 ef 3c 45 8c 33 bc 0b 21 09 bc
       -0.0043855766 0.029245181 -0.010958736 -0.008369694
000100 a6 0f ab bd 58 4d 15 bd 2e ad 53 bd 50 9f 2c 3c
       -0.08352594 -0.036450714 -0.05167883 0.01053603
000110 3a 70 06 be 54 05 9b bc 97 11 13 be cb a2 be bd
       -0.13128749 -0.01892344 -0.14362179 -0.09308394
000120 c2 56 f7 bc 5b 4e 3f 3d f3 89 d4 bd 1f 00 88 3d
       -0.030192737 0.046705585 -0.10377874 0.06640648
000130 bf 49 75 bc 59 76 ae 3d 4d 68 61 3c c8 a0 23 bd
       -0.014971196 0.08518667 0.013757777 -0.039948255
000140 88 51 c5 3c 3b 5f 01 be 93 c3 ff 3d a7 1e 12 bd
       0.024086729 -0.12633984 0.12488475 -0.035673764
000150 44 15 fe 3d b4 1d 66 bd dc 2c 08 bd e8 1a 7d 3c
       0.124064 -0.05618067 -0.033245906 0.0154483095
000160 6f 0d af 3c 19 fd dd bd 2c b7 67 3d 96 39 af 3d
       0.02136871 -0.1083929 0.05657117 0.085559055
000170 6b de 8b bc 96 8b de bc 3f 57 b6 bc 8a ff 0e 3d
       -0.01707383 -0.02716617 -0.022258399 0.03491167
000180 3e 53 23 3d 41 04 d2 bd 3d 67 e0 3b 16 49 61 bc
       0.039874308 -0.102547176 0.0068482445 -0.013750335
000190 c1 5e 00 3e e6 bb 06 3d 09 55 13 bd ea 28 98 bd
       0.12536146 0.032894038 -0.035969768 -0.07429679
0001a0 a5 c9 d9 3c 06 e8 5d bd 94 6e ad bd 92 1a bb bd
       0.02658541 -0.054176353 -0.08468357 -0.09135927
0001b0 91 49 4d bb 2a 36 18 3d 17 23 0d 3d 9f 57 e4 3d
       -0.0031324367 0.03716103 0.034457292 0.11149525
0001c0 6c 31 ad 3c be 89 b2 3d ac 2e d2 3d 3e 5a 5c 3d
       0.02114173 0.087176785 0.10262808 0.053797
0001d0 c5 2d ef 3d 87 72 00 3e c1 be c9 3d 8d 8f d3 3c
       0.11678652 0.12543689 0.098508365 0.025825286
0001e0 9f 79 27 3d 9f 6a 12 be f5 cb dc 3d 5f 31 73 bc
       0.04088747 -0.14298485 0.10781089 -0.014843314
0001f0 8a 7c 97 bd 6f d9 dc bd 88 0b 45 bc 3b 9d 32 bd
       -0.07396801 -0.1078366 -0.012026675 -0.043606978
000200 47 e4 27 3d 8f 9a ab bd 8f 0e 29 3c 4c ea a5 bd
       0.040989187 -0.08379089 0.010318412 -0.08101329
000210 2e 6c a5 bd 10 eb de 3d ff 18 76 3d 74 d4 a1 3d
       -0.08077274 0.10884678 0.060082432 0.0790185
000220 a4 b2 18 bd 73 ad 2c 3d a3 cd d3 bd 21 ae ae bc
       -0.03727974 0.0421576 -0.103419565 -0.021323266
000230 1b 78 81 3c a8 46 89 3d ec ea a6 bd 86 ba 75 3d
       0.015804341 0.0670293 -0.081502765 0.059992336
000240 c8 48 19 3d d3 c7 d8 3d 1e 24 8a bd 6e b8 bb 3c
       0.037422925 0.105849884 -0.0674517 0.022915091
000250 36 6e 7e bd 61 b2 99 bc c9 e5 cb bd 69 c3 58 bd
       -0.062116824 -0.018761816 -0.099559374 -0.052920733
000260 f3 ab fa bd 59 e2 96 bd eb 96 e5 bd 58 19 53 3d
       -0.12239828 -0.07367391 -0.11210426 0.05153784
000270 10 33 d0 3d 9b aa 7d 3a c5 8d bb 3c ef 74 7d bd
       0.101659894 0.0009676606 0.02289475 -0.061879095
000280 02 5b c2 bd ba b9 2f bd da 59 94 bd 2b 57 c0 bd
       -0.094900146 -0.042901732 -0.072437 -0.09391626
000290 67 81 b3 3d 1f aa 0c 3c 27 fa f8 bb 7b 15 2b bc
       0.08764916 0.008585482 -0.00759818 -0.010442133
0002a0 2a b1 3d bd e5 8f 58 3b f4 7f 21 3d 53 e4 77 bc
       -0.046311535 0.0033044752 0.039428666 -0.01513012
0002b0 66 65 14 3e 41 f2 06 3d 96 9c b6 3c cc 5e 93 bc
       0.14491805 0.032945875 0.022291463 -0.017989539
0002c0 3d db 04 be fd 0e bb 3c b4 1b 36 3d 7d e2 03 bb
       -0.12974258 0.022834295 0.044460014 -0.0020124011
0002d0 47 96 95 3c ca 1e a1 bc 9e 73 89 bd 5f a2 f5 bd
       0.018260134 -0.019668002 -0.06711505 -0.119938605
0002e0 49 46 d8 3d 27 6f 27 3d af 40 3b bd 5b 3f 22 3c
       0.10560281 0.040877488 -0.045715984 0.0099028
0002f0 f4 f8 86 3a 51 19 50 3d b0 59 0d 3b 16 d8 9c bd
       0.0010297582 0.050805394 0.002156835 -0.076584026
000300 2b ed 70 3d 02 19 f1 3c e7 4d 83 3d 78 52 4b 3d
       0.05881993 0.02943087 0.06411343 0.049639195
000310 7e 36 d2 3d 55 6d 05 3e bd 0a cf 39 43 33 0f 3d
       0.102643 0.13029988 0.00039490117 0.034960996
000320 8f 2e 38 bc 7b da b0 bd 35 ad 9f 3d dc 0d 0e 3c
       -0.011241569 -0.08635422 0.077967085 0.0086702965
000330 e6 f3 95 3c 10 f4 5c 3c 61 56 ef 3d c1 4a ce 3c
       0.018304776 0.013485923 0.11686397 0.02518213
000340 83 36 63 bd 92 c6 ab 3d 1c 17 fa 3b 2c d2 97 bc
       -0.05547191 0.08387484 0.0076321494 -0.018532835
000350 1a 31 76 bc 2a 89 3f 3d d8 27 a8 3c 9a 20 fb 3b
       -0.015026355 0.04676167 0.020526811 0.0076637985
000360 52 cd 86 3b 32 05 97 3b b5 12 ca bd ef c6 e6 bd
       0.0041138316 0.0046087736 -0.09866849 -0.11268412
000370 04 44 64 3c f8 70 1f 3d 83 4b 93 bd 10 c3 b5 ba
       0.013932232 0.038926095 -0.07192137 -0.0013867337
000380 74 29 c1 bc 6a b8 9d 3d c4 2d 4b 3d df a9 e6 bd
       -0.023579337 0.0770119 0.049604192 -0.11262869
000390 4f a3 e0 3c e6 17 6a bd 53 e2 fd 3d cf 83 6a 3c
       0.027421622 -0.057151698 0.123966835 0.014313652
0003a0 8d 50 b8 bc 01 9f 6e ba e8 87 2e ba 3e da 97 bd
       -0.022499347 -0.0009102673 -0.0006657825 -0.07414673
0003b0 56 e5 9a bd 80 b7 09 bd c1 98 87 bd a8 5b d5 3c
       -0.075632736 -0.033622265 -0.06620932 0.026044682
0003c0 00 c8 91 3c d7 08 04 3d a1 ba 12 bc b2 c2 dc 3c
       0.017795563 0.032234993 -0.008955629 0.026948307
0003d0 64 bf 88 bc 0c 27 38 3c 8f e6 08 3d 4e 29 0e bc
       -0.016692825 0.011239778 0.033423003 -0.00867684
0003e0 7f bb 94 bd af 89 1b 3c df f7 fa bd 4b aa 8c 3c
       -0.072623245 0.009493276 -0.12254309 0.017171046
0003f0 e1 8d 8c 3d d9 73 57 bd 2f 16 05 bd ed c7 d9 bc
       0.06862999 -0.052600715 -0.03249186 -0.02658459

conv2.lin_l.bias f4 [128]
000000 c5 0a ca 3d 09 80 c1 bd 59 74 fd bc b8 a5 3f 3d
       0.098653354 -0.09448249 -0.030939268 0.0467889
000010 1b 64 5b 3d c3 66 83 bd f0 40 ba bd 33 e5 91 bd
       0.053562265 -0.064160846 -0.09094417 -0.071237944
000020 ad d8 f3 bd 21 39 92 3d 4a 93 1a bd 5d a1 f9 bd
       -0.11906562 0.07139803 -0.037738122 -0.12188981
000030 51 53 dc 3d 60 20 b6 bd 18 cd fd bd 63 db a1 bd
       0.10758079 -0.08892894 -0.12392634 -0.07903173
000040 e2 47 af bd b8 6a 72 bd 27 b7 80 bd 0a d6 6d bd
       -0.085586324 -0.059183806 -0.062849335 -0.05806545
000050 39 b7 b1 bd 45 d8 dd bd c3 e2 ce bd 58 49 cd bd
       -0.08677525 -0.10832266 -0.10101845 -0.10023755
000060 23 fe bd bd d8 0f d1 3d d3 4b a4 bd 4c fa 50 3d
       -0.09276988 0.102081 -0.08022275 0.05101995
000070 98 db e8 bd 6c 92 a3 bd 26 85 c1 3d 3c b6 82 3d
       -0.11370009 -0.07986912 0.09449224 0.06382415
000080 dc f0 82 3d 97 62 b1 bd a5 8f 91 3d 12 c9 3c bd
       0.063935965 -0.08661383 0.07107476 -0.046090193
000090 8e d3 90 3c 6b 50 ff bc 21 80 06 be a8 bc f6 3d
       0.017679002 -0.031166276 -0.13134815 0.12047702
0000a0 72 7c f7 bb 8d 01 a0 bd cd 70 16 bd c4 43 ac 3d
       -0.007552677 -0.07812796 -0.03672867 0.08411363
0000b0 52 ed c3 bd 3f ea 44 3d 24 de 9a 3d 87 28 cb bd
       -0.0956675 0.048074957 0.07561901 -0.09919839
0000c0 96 89 94 bd 21 78 41 bd 50 08 91 bd 0d e8 85 bd
       -0.07252805 -0.047233704 -0.070816636 -0.06538401
0000d0 9f 5a c0 bd f3 d1 fd bd 77 e9 90 bd 25 a1 0f 3d
       -0.093922846 -0.1239356 -0.0707578 0.03506579
0000e0 db c3 44 bd d7 1d f5 bd fa f0 2b 3c b5 19 eb 3d
       -0.048038345 -0.11968582 0.010494465 0.114795126
0000f0 13 3c e2 bd 4b 25 ef 3d 69 ee e3 3d ec 05 dc bd
       -0.110466145 0.11677035 0.111294575 -0.10743317
000100 81 c3 71 3d 64 57 8c bd 84 b8 e5 bd 6a 4e e1 bd
       0.059024338 -0.06852606 -0.11216834 -0.110012844
000110 6d dc a9 3d e0 af 2b bd 5d 86 9b 3b 98 2c 66 3d
       0.08293996 -0.041915774 0.004746242 0.05619487
000120 f0 41 b5 3d 93 78 e4 3d 5c 5d ab bd ff 02 cc 3d
       0.08850467 0.1115581 -0.08367416 0.09961509
000130 4b 40 e6 bd ce 1f cf 3d d7 37 78 bd d3 3b c4 bd
       -0.11242732 0.10113488 -0.060600128 -0.09581723
000140 4d cb ad 3d 4e a4 e6 bd 1a ce c7 bd db df 7f bd
       0.08486042 -0.112618074 -0.09756108 -0.062469345
000150 d6 1b de bd 6f dd d0 bd 0b a6 95 bd 7a b6 fd bd
       -0.10845153 -0.10198485 -0.07307061 -0.1238832
000160 5e 22 e4 3b eb 11 f3 3d ff d2 fa bb ab e3 db bd
       0.0069621047 0.11868652 -0.007654547 -0.107367836
000170 75 cf 6b bd 4c 7f a7 3d 60 3d bd bd 68 99 91 bd
       -0.057570893 0.08178577 -0.09240222 -0.07109338
000180 af ad f3 bd b9 12 88 bc 25 84 01 3e 38 2b 14 bd
       -0.11898362 -0.01661049 0.12648065 -0.03617403
000190 c9 7f a5 bd 6a 84 a9 3d 3b a7 a1 3d 0e 55 b2 3d
       -0.08081014 0.08277209 0.07893225 0.08707629
0001a0 d2 77 d8 bd b6 f1 f0 bd 72 fe c4 bd 3a 7e c5 3d
       -0.10569729 -0.11764853 -0.09618844 0.096432164
0001b0 3e 73 b7 bd 58 16 bd bd 7b d2 c7 3c 46 d1 1e be
       -0.089575276 -0.09232777 0.024392357 -0.15509519
0001c0 39 a9 07 3e 07 68 a7 3d 16 c5 cf bd 5e ba b9 3d
       0.13248147 0.081741385 -0.10145013 0.0906875
0001d0 ae 27 f9 bd 51 7d 89 3c 5e 13 cc 3d c4 34 83 3d
       -0.121657714 0.016783388 0.099646315 0.064065486
0001e0 08 c2 8f 3d a4 89 a7 bd 3a c4 b5 bd d2 60 de bd
       0.070194304 -0.0818055 -0.08875318 -0.10858311
0001f0 b0 10 a3 3c 05 fc e2 3d 59 9b 4e bd 6c e1 fb bd
       0.019905418 0.11083225 -0.05044112 -0.12298855

conv2.lin_r.weight f4 [128, 128]
000000 66 dc 0b bc 96 c2 a0 bd f8 b6 05 bd 86 73 d1 bc
       -0.008536434 -0.07849614 -0.032645196 -0.025567781
000010 59 79 f1 bc ae 78 7e bb 76 40 0c 3c dc ce dc bd
       -0.029476808 -0.0038829255 0.008560291 -0.10781643
000020 fd ac ba bc a1 e9 3d 3d 80 60 9f 3d 6e 7d 90 bc
       -0.022787565 0.046365384 0.07782078 -0.017637935
000030 48 6e 92 3c a9 37 0c bc e3 e5 7d bd 3f 1b 0a be
       0.017874852 -0.008558192 -0.061986815 -0.13486956
000040 9d 54 e5 3b 99 d2 80 bd 9f de 70 3b 6f 10 db 3c
       0.006998612 -0.06290168 0.0036753786 0.026741235
000050 04 17 af 3d 06 8b de bd 0a c2 09 3c bc 22 c7 3d
       0.08549312 -0.1086636 0.008408079 0.09723422
000060 e8 b3 c4 3b 07 36 4c 3c d7 07 cd 3a 2e 43 e8 3c
       0.006002892 0.012464053 0.0015642595 0.028352346
000070 8d 1b d7 bd 4e 0a d8 3c 84 a0 cc bd 4a d4 7e 3c
       -0.10503302 0.026372101 -0.099915534 0.015553543
000080 37 95 e2 3c 15 25 85 3d b7 78 41 3d ba 61 8a bc
       0.027659042 0.065012135 0.047234263 -0.016892303
000090 b9 25 0d ba 24 13 b2 bc 44 6a b2 3c a5 95 0e 3c
       -0.0005384344 -0.021737643 0.021779187 0.00870267
0000a0 96 ab 18 3d ab 26 80 bc fe 4e 95 3d 63 3e a7 bd
       0.037273012 -0.015643438 0.07290457 -0.08166196
0000b0 7d 18 cb bd 42 ad b0 3d 03 c7 67 3d 1c ca 91 3c
       -0.0991678 0.08626796 0.056586277 0.017796569
0000c0 c2 2f d7 3d dd e3 19 bc 68 ea 7b bd 44 ff b5 3d
       0.10507156 -0.009392706 -0.061502844 0.08886579
0000d0 22 a7 8b bc 04 d6 b7 bd 6e 91 8a 3d d7 9e 57 be
       -0.017047469 -0.08976367 0.0676602 -0.21056686
0000e0 d0 19 73 bd 1d e3 3a bb 87 a5 8b 3d 2f e8 67 bc
       -0.05935079 -0.0028516718 0.06818681 -0.014154478
0000f0 25 c7 6a 3b 3d a0 01 be d5 9a e9 3c 4b b0 1e bd
       0.0035824266 -0.12658782 0.028516212 -0.038742345
000100 0f a4 10 bd 0b 3c 0b 3d 09 14 0d be 09 7f a5 bd
       -0.03531271 0.03399281 -0.13777174 -0.08080871
000110 94 b6 11 bd fd 0e db bd bb bb ef bd f1 18 50 bd
       -0.03557451 -0.10696218 -0.117057286 -0.050805036
000120 d4 00 2f 3b 55 09 e8 3c e8 88 af 3c 35 a6 16 3a
       0.0026703374 0.028324762 0.021427587 0.00057468127
000130 55 f1 6b 3d b6 0a e4 3d 94 73 96 bd 7f 3e 65 bc
       0.0576032 0.111348554 -0.073462635 -0.013991951
000140 b5 3c 8a 3c ca ef 40 bd 64 e9 c7 3c c3 bc f1 bb
       0.01687465 -0.04710368 0.024403282 -0.0073772385
000150 f6 09 3d bb 4c 4a 4e bb b0 86 c8 3d 0b b4 39 bd
       -0.0028845049 -0.003147739 0.097913146 -0.045337718
000160 5a e8 f7 bc 05 f4 f8 bc 37 29 c5 3d 47 f9 1b 3d
       -0.030262161 -0.030389795 0.09627002 0.038079526
000170 8f 57 3a bd 94 a1 ea 3d ec fa 9d b7 6f 0f 90 3d
       -0.04549366 0.114566 -1.8832703e-05 0.07034194
000180 bb 2a 44 3d 24 0a df bd e8 60 c1 bd 75 9b a2 3d
       0.047892313 -0.10890606 -0.094423115 0.07939807
000190 9b 40 8d 3c bc 4a 8b 3d 07 b4 0f bc 21 9b cd bc
       0.01724272 0.06801364 -0.008770949 -0.025098385
0001a0 ec 38 af 3d 48 77 bf 3b 67 f4 ec 3c 5f 69 bf bd
       0.08555779 0.005843077 0.028925134 -0.0934627
0001b0 4c 7f ca 3d ac ee ac 3d 50 f8 ad bd 5e 4a 06 bd
       0.09887561 0.084439605 -0.084946275 -0.032785766
0001c0 bc c1 4a bc b1 2d f8 3d 31 6f 13 bd a2 a0 7c bd
       -0.012375291 0.1211809 -0.035994712 -0.06167663
0001d0 e5 95 f8 3d 7b ef 63 3d f6 72 96 bb 46 c7 20 bd
       0.12137965 0.05564831 -0.004591341 -0.039252542
0001e0 35 55 80 3d 81 4c 13 be 0c ab 29 bd 6e 58 33 bd
       0.06266252 -0.14384653 -0.04142289 -0.043785505
0001f0 26 15 15 bd a7 3e d3 bc 29 82 96 3d 4d 51 dd bd
       -0.03639712 -0.02578671 0.07349045 -0.108065225
000200 12 0c 64 bc 88 41 02 bd c7 b6 d0 bc 29 89 d4 bd
       -0.013918893 -0.031800777 -0.02547778 -0.10377724
000210 34 95 71 3c 48 14 54 3d a9 55 16 3e 77 ea b9 3d
       0.014745045 0.051777154 0.14681114 0.09077924
000220 ca 24 93 bc 6d 29 67 bc 82 54 bd bc 26 9e 17 3d
       -0.017961878 -0.014108998 -0.023111586 0.037016056
000230 2a ba 98 bb cb 8b 07 3c 16 bb 1c bd 77 b4 e3 3c
       -0.0046608644 0.008273075 -0.038264357 0.027796013
000240 d8 3a ff bc 2e 58 88 3d ed 09 f2 3c 17 c3 c7 3c
       -0.031155989 0.06657444 0.029545749 0.024385018
000250 3d 44 3f 3b 98 99 4b bb 01 a5 f7 bc ba 0a af bd
       0.002918496 -0.003106689 -0.030230047 -0.08546968
000260 6d ab 8b bd 4a 5b 10 3d ab 54 3d 3d 0b 83 7a 3c
       -0.06819806 0.03524331 0.046223324 0.015290032
000270 d4 01 e4 3c 61 98 f6 bd ee 07 9d 3c d8 f8 9d bb
       0.027832903 -0.12040783 0.01916882 -0.0048209243
000280 e4 a1 8a bd be 5e d9 bc 2a cb fc bd 5e 7a 07 be
       -0.067691594 -0.026534434 -0.12343438 -0.13230273
000290 2a 70 01 bd 0c 40 9e bd fa b3 3c 3c 2e 94 18 3a
       -0.03160111 -0.0772706 0.011517519 0.00058204203
0002a0 f6 6e d7 3c ea 28 7b bd b0 6b bf 3c 14 c9 9f 3d
       0.026298027 -0.061318316 0.02336678 0.078020245
0002b0 4a 4e b5 3d 35 16 0b 3d a7 5b 08 be 6b ed ee bd
       0.08852823 0.033956725 -0.13316213 -0.11666378
0002c0 c8 5c 40 3c c2 92 77 3d 2c ba fd 3c 8b 40 a3 bc
       0.011740871 0.060442694 0.030972563 -0.019928237
0002d0 a8 88 c3 bc 7d e1 0f 3d 87 c5 87 3c 12 c6 33 3e
       -0.023868874 0.03512715 0.01657368 0.17556027
0002e0 40 e7 9a 3c 7f 3b 0c 3e 8c d1 22 bd 6a ef 9b bc
       0.018909097 0.13694571 -0.03975062 -0.01903506
0002f0 72 51 58 bc 1b c2 a1 3c 5a 63 70 bd 1d 0e 5c bd
       -0.013203012 0.019745877 -0.0586885 -0.053724397
000300 48 49 59 bd ec b8 38 bc 1c 84 07 3c f8 02 6d 3c
       -0.053048402 -0.011274558 0.008271243 0.01446604
000310 f6 dd ae 3c c6 99 00 3d d7 f7 d1 3d 82 f6 09 3e
       0.021346074 0.03139665 0.1025235 0.13472942
000320 cb 89 15 3d 89 57 dc bb 41 e1 dd 3d 1b 4b 32 bc
       0.036508363 -0.006724302 0.108339794 -0.010882164
000330 8c 7c 7e bd 8b 20 ac 3c 0a b8 36 3d db d1 7b bd
       -0.062130496 0.021011611 0.044609107 -0.06147943
000340 33 58 c4 bd 1f 43 aa ba 7b 49 cd 3c 7f d5 81 3c
       -0.09587135 -0.0012989974 0.025059452 0.015848873
000350 99 8c 02 be ed 9a 72 bc 78 88 3c bc f6 74 05 3e
       -0.12748946 -0.014807445 -0.011507146 0.13032898
000360 64 c2 0f 3e 16 dd f6 3d a3 3e 36 bd 48 03 39 bb
       0.14038998 0.120538875 -0.04449333 -0.0028230716
000370 a4 94 a7 3b 91 78 80 bd a0 c6 88 3a 39 73 9a 3b
       0.005114155 -0.06272996 0.0010435171 0.0047134426
000380 dd b4 1a bd 87 e7 90 3c 9f 00 cd 3d 35 e6 ad bd
       -0.03777014 0.017688526 0.10009884 -0.08491174
000390 2d 34 82 bd 04 e4 48 bb 0f ca 19 b8 31 54 2a 3d
       -0.06357608 -0.0030653486 -3.6666224e-05 0.041584197
0003a0 14 64 91 bd 59 33 f0 3d 71 3a 1a 3d 3e 4e 47 bb
       -0.070991665 0.11728544 0.03765339 -0.0030411626
0003b0 a8 7a 46 bd 95 c8 6f bd d2 db 20 3d d6 91 ee bd
       -0.048456818 -0.0585409 0.039272137 -0.1164891
0003c0 34 85 37 bc c5 65 7f bd ae 40 98 bd 0b a2 e8 3d
       -0.011201192 -0.062352914 -0.07434212 0.11359032
0003d0 ed 66 c9 3c 33 ad 09 3d 24 5f 28 3d be 76 b2 3c
       0.024585212 0.03361244 0.04110636 0.021785136
0003e0 b8 5f 3c bc 5b 16 fe 3d ed 19 9c 3b 5d e8 46 3b
       -0.0114974305 0.12406608 0.004763833 0.0030350902
0003f0 10 7d b9 3d 18 d5 ce 3d d7 46 40 bd 20 c1 de 3d
       0.09057057 0.10099238 -0.04694256 0.108766794
