gnn_model_state.pt (torch, 528280 bytes, 6 tensors)

conv1.lin_l.weight f4 [128, 384]
00000000: f14d 913d ed9e 8a3d 65a0 80bc 2d88 00bd
00000010: 9b08 b9bd 371d a33d b25a 41bb 6bf3 ef3d
00000020: 1c84 363d 695b 733d 6f02 bb3d f9fd bb3d
00000030: 1709 febd fd4d 5cbc 162b 0d3e 614d f2bc
00000040: 589e 26bd 8a67 a1bd f7ca fa3d 2da4 2f3e
00000050: fd2e 04bd 7e44 07be db1d 233d eea1 293c
00000060: 2444 70bd a303 6e3d a861 0d3c fcad 073e
00000070: 46b4 143c cc7c 243e ba85 d13c 1ff5 903d
00000080: 5ba3 6c3c 14d4 8a3b 4401 f93c d214 88bd
00000090: e978 9e3d 4b59 f2bd 9fb6 56bd 37ca 07bd
000000a0: 35db e0bc 6337 00be 0702 183b 2dbb b1bc
000000b0: 3378 b9bc 5f6d 86bd 18ed 3a3d 74f2 7f3d
000000c0: c9df 573d a381 58bd c056 703d 9dc2 333d
000000d0: d443 0f3d b0bb 8fbd 2df6 11bd e51a 70be
000000e0: a84a 1fbe 42f7 e93c 27e5 c43b c1d6 afbd
000000f0: 23eb d1bd 4d2c ad3d 7686 943d 3e75 f43d
00000100: 0d57 1b3d f385 80bd 0dc4 05bd 3642 29bd
00000110: e648 993d cead 54bd 69fe d03c 471a b8bd
00000120: f7d5 803b 43ed 8bbc 06fd c6bc 2ff0 39bd
00000130: 7d40 b5bd 7bc3 fb3d 8524 1ebe bac5 903d
00000140: e9bb 733c 25b4 b4bd f8cc 39bd a177 3cbc
00000150: 9d02 0bbe 613a ce3d 96b3 9a3c 84df 76bd
00000160: 1caa 86ba c2e3 6dbc 39cc f63c 09ad 1abd
00000170: 9ebf 003e 1ec0 41bc d59f 31bd 2926 28bc
00000180: 7ff5 c1bd fdea b13d 754a a23d 0bb2 39bd
00000190: 6124 b8bc ea85 85bd 1a53 87bd 8428 5abd
000001a0: be3d 6c3c 6261 033d cf3c dabd cc4a 01bd
000001b0: caf2 76bd f854 723d ddb2 bbbd 0ef5 b9bc
000001c0: 4a47 aa3d 787d 01be e89c b1bd 5796 0c3e
000001d0: 24d1 bdbd 47c5 7a3d be10 893c 92e3 64bd
000001e0: ebea 923d 9a92 f93c 6857 9b3c e66d 0fbe
000001f0: 49c9 aabd d0bc 483d 32cd 213d e51f 103d
00000200: ea2f ebbc 9a59 edbc 847d a8bd 68f2 09bd
00000210: 4bef 6dbd 468f a53c 1be8 873d 0307 03be
00000220: 8c57 f638 87d5 313c 7518 5bbc 7282 3bbe
00000230: 19a8 163e 09aa c9bc 1ad4 d4bd c413 103e
00000240: 98ce 4f3d 4e8d 34bc 5bad cf3d 2f7d 1bbd
00000250: 71d0 cebd a99e e13c a28c 0ebd 0782 733d
00000260: 8c06 5abc 8315 e73c bb37 2bbe cddd 8dbd
00000270: 0d86 b23c a3e7 a03c bbc8 c73d 7c08 c6bc
00000280: 113c 09be a0b5 87bd a978 29bd f885 c33c
00000290: 3ab2 0b3e 4f8b 4e3b fdab 41bd a7cc 32bd
000002a0: a049 2a3d d0c3 bfbd a503 14bd 33f4 083e
000002b0: 2ee5 f53d e25a c43d c032 29be ffa4 6a3c
000002c0: 026e e33c 7b45 923d 379d 1dbe c048 563c
000002d0: ebd8 933d d53e a13b 7515 363d 92c5 ffbc
000002e0: 358a 92bc adb4 2e3c b553 ebbd 6df1 83bd
000002f0: 46d8 a23c b1cf f0bc d2b0 193e 1065 afbd
00000300: 5144 5d3d a5f9 4dbd d284 f83c aa1e 19be
00000310: 8138 b2bc 066c 4d3d 554c d93d e486 26bd
00000320: 094b 8e37 925b df3d 9b01 09bd 70ee 8c3e
00000330: dca6 cc3d e14d 4a3d 190e 053d 872d b3bc
00000340: 6fb0 933d 1539 5a3d 1c48 453d 721d 373e
00000350: 5c53 333d 291b bc3d 364b 52bd aff5 8f3d
00000360: 75e5 3fbd 0bf5 ec3d 7f04 8e3d fe2e 273d
00000370: e273 083e 5c9e 5d3c 96d7 b0bd 2968 12bd
00000380: dbbe 893d 4c3c 923c c1eb ddbd 61af 7cbd
00000390: 7f11 3cbc fc80 553d d049 bb3c 93ea ebbd
000003a0: bc89 a3bc 6c87 3b3d 65c4 dc3d 1c23 98bc
000003b0: d90e 73bd f004 7c3d 4888 9fbb 32d8 01bc
000003c0: 20eb 8fbc b1ad 4abe 4548 d43d 4f3b 563b
000003d0: a281 5dbd 3d0c 9e3b 356e aa3c ef4d fdbd
000003e0: 18cf b8bc 2eba c0bd 371a 823d 7499 fabd
000003f0: a6fc a0bd df8a a0bc d9d1 bc3d e3fb 943c
0.07094944 0.06768594 -0.015701482 -0.031379867 -0.090348445 0.07964557 -0.0029503522 0.1171635
0.044559583 0.059413347 0.091313235 0.09179301 -0.124040775 -0.013446328 0.13785967 -0.029577913
-0.040678352 -0.07881077 0.12245744 0.17152472 -0.032271374 -0.13209721 0.039823394 0.010353548
-0.058658734 0.058108937 0.00862924 0.13249964 0.009076184 0.16063231 0.025576461 0.07078003
0.014443244 0.0042367075 0.030396111 -0.06644596 0.077379055 -0.118334375 -0.052420255 -0.03315183
-0.027448276 -0.12521128 0.0023194568 -0.021695698 -0.022640323 -0.0656383 0.045636266 0.06248708
0.052703653 -0.052858006 0.05867648 0.04388677 0.034976795 -0.070182204 -0.035635162 -0.2344776
-0.15555823 0.028560285 0.0060087624 -0.08585883 -0.10249927 0.08455715 0.07252209 0.11936425
0.037924815 -0.06275549 -0.03265767 -0.04132291 0.074846074 -0.051923566 0.025511937 -0.08989387
0.0039317566 -0.017080909 -0.024290573 -0.045395073 -0.08850191 0.12293144 -0.15443619 0.07068963
0.014876344 -0.08823422 -0.04536149 -0.011503131 -0.13575216 0.10069729 0.018884461 -0.060271755
-0.0010274085 -0.014519634 0.030126678 -0.037762675 0.12573096 -0.011825589 -0.04336532 -0.010263004
-0.09470653 0.086873986 0.07924358 -0.04533581 -0.022478284 -0.06519683 -0.06607647 -0.053261295
0.014419017 0.032075293 -0.106561296 -0.031565472 -0.060290135 0.059163064 -0.09164975 -0.022699859
0.083143786 -0.12645519 -0.086725056 0.13729225 -0.09268406 0.061223295 0.016731616 -0.05588109
0.07173713 0.030465413 0.018962577 -0.14006767 -0.08339173 0.04900819 0.03950233 0.035186667
-0.02870937 -0.02897339 -0.08227065 -0.033678442 -0.058089536 0.02020992 0.066360675 -0.12795644
0.00011746501 0.010854132 -0.01337253 -0.1831148 0.14712562 -0.024617212 -0.10392018 0.1407004
0.050734133 -0.011020018 0.10140487 -0.03796118 -0.10098351 0.027541475 -0.034802087 0.059450176
-0.013307225 0.0282085 -0.16720478 -0.06927071 0.021792436 0.019641703 0.09755083 -0.024173968
-0.1340182 -0.06626439 -0.041374836 0.023867592 0.13642207 0.003151614 -0.04728316 -0.043652203
0.04157412 -0.0936352 -0.03613629 0.13374405 0.12006603 0.09587647 -0.16523266 0.014321565
0.027762417 0.071421586 -0.15392004 0.013078868 0.07219108 0.0049208202 0.044454057 -0.031222139
-0.017888168 0.010663194 -0.11490575 -0.06442533 0.019878518 -0.02939591 0.15008858 -0.08564198
0.05402023 -0.050286908 0.030336771 -0.14953104 -0.021755459 0.050151847 0.10610262 -0.040655985
1.696266e-05 0.109061375 -0.033448797 0.27525663 0.099927634 0.049390677 0.032484148 -0.021872295
0.072113864 0.053277094 0.048164472 0.17882326 0.04378067 0.09184868 -0.051341258 0.07029282
-0.046849687 0.11570176 0.06934451 0.0408163 0.13325456 0.013526525 -0.0863487 -0.035743866
0.06725856 0.017851017 -0.10835982 -0.06169069 -0.011478781 0.052124962 0.022862345 -0.11519351
-0.019963138 0.045783445 0.10779647 -0.018571429 -0.05934033 0.061528146 -0.004868541 -0.00792508
-0.017568171 -0.1979282 0.10365347 0.003268916 -0.054078706 0.0048232363 0.020804504 -0.1236838
-0.022559687 -0.09410511 0.06352656 -0.122363 -0.07860689 -0.019597469 0.09219713 0.018186515

conv1.lin_l.bias f4 [128]
00000000: 3e13 03be c14a b6bd f74a 61bd e249 58bd
00000010: da86 c8bb eea1 e3bd d3ce 88bd c727 73bb
00000020: 2e0e 9ebd dccc debd 2519 19bd 3e0c 41bd
00000030: 98d4 a5bd e2c4 e5bc 5a01 44bc f9c7 17bd
00000040: 3e93 143c b0fb 85bd 4cc8 4bbd 634e 98bd
00000050: 5318 1cbd 3539 5ebd 6fbb c1bd 8bc8 c7bd
00000060: b01d 7ebd 0465 82bd 4813 2dbd 9928 9bbd
00000070: 1442 a7bd d8bc 57bd 5102 d9bc ed33 9ebd
00000080: f9d5 58bd a800 f9bb 207f 95bd 3215 dfbd
00000090: 008c 7abd fd95 84bd 53da 5abd ba6d 57bd
000000a0: 6ef7 82bd 529a b7bd 4afb a0bd ab88 c5bd
000000b0: 6df4 e93d 5937 82bd abfe 02bd b7e1 3cbd
000000c0: d729 eebd 4361 f5bc 5659 c0bd 22b3 b1bd
000000d0: 13e2 93bd 19d0 91bd c1cb 18bd 66ac 09bd
000000e0: 6e0c 74bc 4059 e9bc 65bb 7dbd 676d e9bd
000000f0: 652e 8dbd c841 a1bd cd96 61bd 0e1d 9d3c
00000100: 43d1 05bd 4021 38bd c694 76bd f739 36bd
00000110: 8d15 57bd 004b 8dbd 6b03 10bd c232 b6bd
00000120: a452 b6bd 795b fcbc 190b 1abd a11f c5bd
00000130: c568 b0bc 0ea3 3cbd cabb 26bd fad2 d1bd
00000140: 3b74 3b3c 9fed 13bc 2514 37bd 9ecc 1fbd
00000150: c52f c0bd c33c 8cbd ab81 58bd f517 44bd
00000160: c2b1 9bbd a7a8 dabc bfaf 44bc 37d5 3bbd
00000170: b98c 4dbd 35b6 ebbc 5613 9abd 62a8 28bd
00000180: 45a4 b9bd c7b3 0bbc be7b 77bd 5017 7cbd
00000190: 380b 82bd 96fe fcbd 8a4d c1bd 0efd 03be
000001a0: 194d 4cbd bc59 9cbd 2cff 6abd 1c64 4bbd
000001b0: d3e9 c33d d906 b3bd bfc4 67bd 3c3e 82bd
000001c0: a0cd 41be a52e 31bd 71e8 d3bd 6037 34bd
000001d0: 1878 45bd 75f8 b6bd 82fe a3bd a8f5 cebd
000001e0: 272a 95bd 35f3 76bd 00c7 6abd dc84 c03b
000001f0: bae8 74bd 05cc 96bd f2c4 3ebd a2a9 debd
-0.12800309 -0.08900977 -0.055003133 -0.052804835 -0.006119591 -0.1111487 -0.066800736 -0.0037102567
-0.07717548 -0.108789176 -0.037377495 -0.047130816 -0.0809719 -0.028047983 -0.011963213 -0.037055943
0.009068308 -0.06542146 -0.049751565 -0.07436826 -0.038109135 -0.054253776 -0.09459578 -0.097550474
-0.06204003 -0.063669235 -0.042254716 -0.07576103 -0.081669 -0.05267033 -0.026490362 -0.07724748
-0.052938435 -0.007598955 -0.07299638 -0.108927146 -0.06116867 -0.064739205 -0.053430866 -0.052594878
-0.0639485 -0.08964981 -0.078604296 -0.09645208 0.11423574 -0.06358213 -0.03198115 -0.046113696
-0.11629074 -0.029953605 -0.093920395 -0.08676745 -0.072208546 -0.071197696 -0.03730369 -0.033611678
-0.014895542 -0.02848494 -0.06194629 -0.1139782 -0.06893615 -0.07873875 -0.055075455 0.019178893
-0.03267027 -0.044953585 -0.060200475 -0.044488873 -0.052510787 -0.06899071 -0.03515951 -0.088964
-0.08902481 -0.030805336 -0.03760824 -0.09625173 -0.021534333 -0.04605394 -0.040706433 -0.10245319
0.011441286 -0.009028821 -0.044696946 -0.039013498 -0.09384111 -0.06847527 -0.052858036 -0.04787441
-0.07602264 -0.026691748 -0.012004792 -0.045857634 -0.05018303 -0.028773407 -0.07523219 -0.041176207
-0.09064535 -0.008526749 -0.060420744 -0.06154567 -0.06349796 -0.12353246 -0.094386175 -0.12889501
-0.049878214 -0.07634303 -0.057372257 -0.04965602 0.09566083 -0.087415405 -0.056584116 -0.063595265
-0.18926096 -0.043257374 -0.10347069 -0.043998122 -0.048210233 -0.08934108 -0.08007528 -0.10105449
-0.072834305 -0.060290534 -0.057318687 0.005875213 -0.059792258 -0.073631324 -0.04657454 -0.10872199

conv1.lin_r.weight f4 [128, 384]
00000000: 39eb 0f3d 0371 9f3d b456 cbba 46fa 8bbd
00000010: e7f3 88bd 42c5 143e ca54 bdbd de00 c93d
00000020: 11c5 f8bd fb52 a33d bc8a d83d a679 8b3d
00000030: a5ca 9cbd b929 0abd 1e6f 303d 671b 913c
00000040: f643 a7bc b3f2 5cbd 8db7 7d3d 060f 293d
00000050: d7b4 0ebe 19d7 c6bd 5f4b 6f3c c64a b73c
00000060: 76da fbbb aacb 173e b965 00be 5d5c f63d
00000070: cde2 2f3c 9af2 aa3d 9a05 9dbd ffa1 933c
00000080: 8a19 f03b d76b 84bc 2ef2 183d 15d6 3dbc
00000090: 4e21 0c3e 3bb3 e0bd 3599 a93d 0759 4cbd
000000a0: f51e 393c 04e4 1ebe abf3 a6bb 8acb 3e3b
000000b0: 4d57 0d3c c193 0abd 4c2d 953d 242c f03d
000000c0: 36a0 06be e756 dbbd 84d6 073e 9793 473c
000000d0: a82c 033d 1f30 babd 2283 42bd efb4 e0bd
000000e0: eb69 adbd 091c 713b 490f 5e3c efc1 82bd
000000f0: 3949 33bc 35cf 013d 8d7f a83d d551 6abb
00000100: 5f3d d83d 22db 78bc 9cce 90bd f3dc 11be
00000110: 73cf 1e3e 60a6 9c3b 069a 1f3d e464 ccbc
00000120: cad5 773d d5be 97bd f918 e0bc 2d6f f1bd
00000130: 8014 17bd a629 643e 161d 4abe 6a86 b53d
00000140: 1d9f 913b 313d dcbd 1cdc ff3b 6da3 35be
00000150: d556 e6bd bdb1 203c d92f bf3c d790 cebd
00000160: 9da6 4abe ddc0 533c 40b6 963d 5082 433e
00000170: f257 253e 6d75 433d 155b 47bd a4ef 613d
00000180: 3228 56bc 2f8e 463d dcd8 94ba 845b 88bd
00000190: 91cb d8bb a680 b6bd bf27 a93c c00a 793d
000001a0: 41e3 9cbd 8c2d d03d 6b00 75be 931a d0bd
000001b0: bdff 21be 8331 bc3c 7773 6fbd 12be b2bd
000001c0: 427c a7bc b873 27bd 9d35 843d fa8b bc3d
000001d0: b357 f8bd 3aec c03c 9673 c6bb 097b bfbd
000001e0: 6efc ae3c 6f98 ea3d 28e0 c6bd 6b5c cabd
000001f0: 7161 10be 548e 083e 11d0 a83d 0cc1 a6bc
00000200: ffcd c1bd 4707 a2bd c821 9abd 531f 52bd
00000210: ccc2 08bd 501a 1a3e 644c 4fbc aebd 0cbd
00000220: 65fb 3ebd 15b6 e3bd 86f3 a73d 3c3a ecbd
00000230: 5f27 d23d a218 1bbd 6874 19be 893e 1f3e
00000240: 5ff8 fd3d c6ee 66be 1c92 393d 835f a43d
00000250: 6017 f7bd 3922 e33d db7f bebc 37a8 1c3e
00000260: 3161 a0bd e740 bb3d 9e41 cbbd 80eb 733e
00000270: e4e8 62be 8d2a e4bd c9e4 df3d aceb 6abd
00000280: c76b 03bd c649 c4bd 2c7b 27be f485 da3b
00000290: 7208 5b3e 7623 813d 42d2 333d 523b 053d
000002a0: 5d11 863d 26a8 3fbd e4d8 3dbe be49 7b3d
000002b0: 761d c43d d2ad 7e3d ec77 9ebd e7b1 97bd
000002c0: db17 923d 1f70 bd3d b2b7 3cbe e89e 49bd
000002d0: 47c2 593d fd10 5f3e cb1b 6c3e 2fcd da3c
000002e0: 80d9 683c c656 89bd d987 4ebd 8fad 0ebe
000002f0: c8be 9f3d 1de4 493d cb29 0c3e 1246 9abd
00000300: bddd 3a3d 4944 54bd 693f 42bc 6054 f6bc
00000310: 1046 f5bc 4b78 b03c 385b 9fbc 56e5 13bd
00000320: dfb8 14bd a959 893d 5880 21bb 9084 2e3d
00000330: d876 24be 6791 433c 3a8c 313d b945 ab3c
00000340: d1ec b03d b3bd 1c3d 05f7 8c3d 71dc 153e
00000350: 2069 ab3d fa84 6b3d 4333 e8bd 69a6 2b3d
00000360: ac2d ed3d 64ef 833b e5a8 9c3d c297 8e3d
00000370: 21ee e93d 3343 3e3d f56f a9bd ff12 f6bc
00000380: 10bc 8b3d 52a0 a63c 61d8 27bb 45d4 ecbc
00000390: fc9f 933d 39a1 d23d a6ac 683d 5b2c ed3c
000003a0: 292d 9d3c 8aec c93d 7e28 5d3e dd9d e03c
000003b0: 3f40 fcbd 86aa f93c 51c1 b7bb 73f5 0abe
000003c0: a5d5 243d 5efa 04be 12cd b33c 1379 4dbc
000003d0: f18a 32be a2aa 0bbd 0523 1e3d 032b 09bd
000003e0: 1d6f 983c 0a3f 18be 8e33 993d 9c01 1bbe
000003f0: e605 373c 4b7b aebd 3063 e43d 9213 2f3d
0.035136435 0.07785227 -0.001551351 -0.06834845 -0.06687146 0.14528373 -0.09244688 0.098146185
-0.121469624 0.07974812 0.105733365 0.06810312 -0.07655839 -0.033731196 0.04307472 0.017713262
-0.020418148 -0.053942394 0.061942626 0.041274093 -0.13936172 -0.09708995 0.014605372 0.022374522
-0.0076859547 0.14823785 -0.12538804 0.12029336 0.010735226 0.08347054 -0.07667084 0.018021582
0.0073272632 -0.016164703 0.037340336 -0.011586686 0.1368458 -0.109716855 0.08281175 -0.04988959
0.011298885 -0.15516669 -0.0050949655 0.0029113018 0.008626771 -0.033832315 0.0728403 0.11727169
-0.13147053 -0.10709935 0.13265425 0.012181184 0.03202501 -0.090912096 -0.04748834 -0.1097201
-0.08467468 0.0036790392 0.013553449 -0.06384646 -0.010942751 0.03169175 0.082274534 -0.0035754342
0.105585806 -0.015188964 -0.070706576 -0.14244442 0.15508823 0.0047805756 0.038965248 -0.024950452
0.06050662 -0.07409445 -0.027355658 -0.11788783 -0.036884785 0.22281513 -0.19737658 0.08863528
0.0044440166 -0.10753859 0.0078082215 -0.17738123 -0.11247031 0.009808001 0.023338245 -0.1008622
-0.1979012 0.0129244 0.0735898 0.19092679 0.1614683 0.047719408 -0.048670847 0.05516018
-0.013071107 0.04847544 -0.0011356133 -0.0665808 -0.006616064 -0.089112565 0.020648835 0.060801268
-0.07660533 0.101649374 -0.2392594 -0.10161319 -0.15820213 0.022972828 -0.058459725 -0.08727659
-0.020444993 -0.040881842 0.064555384 0.09206386 -0.12126102 0.023550142 -0.0060562594 -0.09349639
0.021360602 0.11454856 -0.09710723 -0.098809086 -0.14099671 0.13335544 0.082428105 -0.020355724
-0.09463119 -0.07911544 -0.075259745 -0.051299404 -0.033388898 0.150491 -0.01265249 -0.03436058
-0.046626467 -0.11118714 0.08200745 -0.11534545 0.10261416 -0.03786529 -0.14985812 0.15551199
0.12400889 -0.22552022 0.045305356 0.0802603 -0.12065005 0.11090512 -0.023254326 0.15298544
-0.07831038 0.091432385 -0.09924625 0.23820305 -0.22159153 -0.111409284 0.10932309 -0.05735366
-0.032085206 -0.09584384 -0.1635558 0.0066688005 0.2138994 0.06305592 0.04390169 0.032527275
0.065462805 -0.04679122 -0.18539768 0.061349623 0.09575932 0.062177487 -0.07737717 -0.07406979
0.07133456 0.09249901 -0.18429449 -0.04922381 0.053163793 0.21783824 0.23057477 0.026709167
0.014212012 -0.06706004 -0.050422523 -0.13933395 0.078000605 0.04928981 0.13687818 -0.07532896
0.045621622 -0.051822934 -0.0118559385 -0.03006953 -0.029940635 0.021541735 -0.019452676 -0.036107384
-0.03630912 0.067065544 -0.002464315 0.04260689 -0.1606096 0.011936522 0.04334662 0.02090727
0.08638919 0.03826685 0.06883053 0.14634873 0.083696604 0.057499863 -0.113379024 0.041906748
0.11580977 0.0040263403 0.076494016 0.06962539 0.114223726 0.046450805 -0.08273307 -0.030038355
0.068229795 0.020340119 -0.002561115 -0.028909812 0.07208249 0.10284657 0.056805275 0.028951814
0.019186573 0.09859569 0.21597478 0.027419025 -0.123169415 0.03047682 -0.005607762 -0.13570194
0.04024281 -0.12986133 0.021948371 -0.012541073 -0.17435814 -0.034098275 0.038607616 -0.033488285
0.01860767 -0.14867797 0.074805364 -0.15137333 0.01117084 -0.0851961 0.11151731 0.042743273

conv2.lin_l.weight f4 [128, 128]
00000000: 311a 603c 009a 16bc 5be4 713d 1a86 85bd
00000010: 58d8 84be 877c dbba a16e e43c 2b1e a03c
00000020: 21b3 b2bc 4702 f4bc cb23 57bd a032 d1bd
00000030: b424 d8bc baaa c8bd b973 013d 7eaf e3bc
00000040: 48a5 14bd 8d5c 983d f115 d4bd ebf4 113c
00000050: 015c 093d f56b 413d 209a e5bd e5e3 c83e
00000060: 98fc f8bd 8214 8bbd d2d3 e43d ac8d c6bc
00000070: 3c78 85bd 7964 893c 8f55 eb3d 108b c7bd
00000080: 3157 893d 8d3b 11be 8cc2 d4bd 32ef a9bc
00000090: 0718 c7ba c3bb bfbd fccc c53c 8a43 71bd
000000a0: 0e53 8ebd b73e e0bc 0ef3 0e3d 0a47 023e
000000b0: 44b0 4bbe 44d6 90ba ceef 09bd 76b1 7bbd
000000c0: b6b3 98bd 32a7 f7bd 1264 b23c 09b6 dabd
000000d0: d56d 103e fb19 ae3c a853 9dbc 2567 863c
000000e0: 9211 1b3e 5999 223d 1c47 23bd 875b 8abe
000000f0: 8836 a73d 430a c63d 7331 95bc ee88 8e3d
00000100: 87f6 acbd dfa9 53bc 68b1 82bd fdf8 fcbd
00000110: 803a 093e 2e57 8e3c 05eb c23d 4b70 6abd
00000120: f695 b23d 0705 893e 8e49 7ebd e390 d43d
00000130: e82b 063c a4ba 7f3d 4206 ee3c 9c1d 18bd
00000140: a703 673c e76f 0a3d ab28 1fbb 5ec5 c3bd
00000150: 72d1 403d ad94 00be a4a7 673d 018c 193d
00000160: bf03 78bd 79ba 4fbb 97f6 813b eb90 d6bc
00000170: 805c 39bb 80d4 21bd 36e6 133e cb16 bcbd
00000180: 56b6 8abb dfab 04be 0332 16bc 6fd6 ad3d
00000190: b6ce 19be e8da 443d e1de 3b3d defc 223e
000001a0: f24b 8b3b 3937 6fbc a56b 26bd 0ebc 803d
000001b0: a09c 223e af61 853d 3018 f3bc bdf3 083d
000001c0: 40e7 8fbd a38b 14bd cd00 61bd 329d a4bd
000001d0: 0bf4 7a3d bad4 643d 0b19 d9bd c22c df3d
000001e0: 9d9e 1b3d 406e c53d 1f63 7f3c df79 f1bd
000001f0: 49ee d4bd d948 f83d b361 1e3b 6da2 f7bd
00000200: f0c0 f43c 7beb afbd 5bc6 25bd 58a7 35bd
00000210: becf 83be d2ed e6bc 7f06 c1bd e7ed 4ebc
00000220: 9b84 ddbc 26ea 723c 2680 a9bd 2a83 37bd
00000230: 944f 80bd 7ad0 e9bd eaca 5a3c 74bf f7bc
00000240: 0300 9dbc d905 bfbd 6f63 b13c 6f66 88bd
00000250: e944 dd3c 3d18 30bd 1726 26bd ea3f da3b
00000260: b4ee a83d b095 f1bd 357a e33c b3b0 8cbc
00000270: a478 eabd 39ac b93d 6acf de3d faed 1f3d
00000280: 4294 ecbd 0cf5 153e c6de 42bd 2fae d73d
00000290: ddff 86bd 0251 463d cead debd 6b0d 8e3c
000002a0: 2e43 08be 969e 363c 2940 30bd 2e54 e43d
000002b0: ba98 09be 2b1e 213d cf10 01be 960f 17bd
000002c0: 0618 273d 4bfa 03be c464 2a3d 9365 bf3b
000002d0: d725 fe3c 98ca 94bd 7a72 3bbd c908 73bd
000002e0: 7751 203e 2b0a c1bd 85e6 43bd 1bd8 4b3d
000002f0: f7b1 0a3e 3c40 dfbc 2435 993b 6514 453d
00000300: 455f d9bc 3b86 e3bc 664d 093d 02c5 10be
00000310: 7b30 9e3d 1c12 f8bc a03f 743d 1417 ffbc
00000320: 6b34 463d 6241 b1bd 40b8 ecbd 4ca6 d43d
00000330: b749 babd 643b 98bb cb22 dcbd 1ea7 ea3c
00000340: 4d24 cbbd a783 c13c 0c22 afbd 24cd 77bd
00000350: b099 953b bb90 82bc f1ea 293d 2a13 a4bd
00000360: f4e6 9bbd e980 a63b abe7 07bd 5127 b73c
00000370: 05c7 98bc c3ff d43c 7405 803d 1485 c6bd
00000380: c9c9 cbbb 8d10 d7bd dc05 8cbd 8336 ce3b
00000390: 6ad7 2cbd c5a3 2f3d e5c9 d9bd 8cf6 d83d
000003a0: c645 3f3d 19bc 383d b368 61bd 26f6 eebc
000003b0: d8e2 893d e5f8 d33d 191d 933d 7bd8 52bd
000003c0: 5ed8 293d be37 b9bc dacc 0ebd b825 333c
000003d0: c371 bc39 c90a 95bc de3c 6dbd a467 e83d
000003e0: 7da3 563d ddb3 1b3d 35cc f3bd d6f2 20bd
000003f0: 6f75 cbbd 223a 853d 8beb fcbd 617a 88bd
0.0136781195 -0.00919199 0.059055667 -0.065197185 -0.25946307 -0.0016745486 0.027884783 0.019545635
-0.021813931 -0.029786242 -0.05252437 -0.10214734 -0.026384689 -0.097981885 0.031604502 -0.027793642
-0.036290437 0.07439528 -0.103557475 0.008908491 0.033535007 0.047222096 -0.11211038 0.3923637
-0.121575534 -0.06791021 0.11173214 -0.024237476 -0.065170735 0.016771542 0.114909284 -0.09743321
0.067060836 -0.14182873 -0.10388669 -0.02074394 -0.0015189656 -0.093619846 0.024145596 -0.0589023
-0.06949435 -0.027373655 0.034899764 0.12722412 -0.19891459 -0.0011050184 -0.03367596 -0.061448537
-0.07456152 -0.12092437 0.021776233 -0.10679252 0.14104398 0.021252623 -0.01920493 0.016406605
0.15143421 0.039697025 -0.039862737 -0.27022955 0.08164698 0.09669926 -0.018212056 0.06959711
-0.08445459 -0.012918918 -0.06381494 -0.12352178 0.13401222 0.017375555 0.09517483 -0.057235997
0.08720009 0.26761648 -0.062081866 0.103791974 0.008189179 0.062433854 0.029055718 -0.037137613
0.014099992 0.033798125 -0.0024285715 -0.09559129 0.047074743 -0.12556715 0.05655636 0.037487034
-0.060550448 -0.003169684 0.0039661634 -0.02619215 -0.0028283894 -0.039509296 0.14443287 -0.09184035
-0.004233162 -0.12956189 -0.009167197 0.084881656 -0.1502026 0.048060328 0.04586685 0.15916774
0.0042509967 -0.014600568 -0.04063 0.062858686 0.1588006 0.06512772 -0.02967462 0.033435572
-0.07026529 -0.03626598 -0.054932404 -0.08037795 0.061267894 0.055866934 -0.1060048 0.10897209
0.037993062 0.09640169 0.015587597 -0.11790823 -0.10397012 0.121232696 0.002416712 -0.12091527
0.029877156 -0.08589836 -0.04047237 -0.044349045 -0.25744432 -0.028189573 -0.09425067 -0.0126299625
-0.02704077 0.014826333 -0.082763955 -0.044802822 -0.06265178 -0.11416717 0.013354043 -0.03024266
-0.019165045 -0.09327287 0.021653859 -0.06660163 0.027010398 -0.042991865 -0.04056367 0.006660451
0.08248654 -0.11796129 0.027768234 -0.0171741 -0.114487916 0.09066052 0.10879405 0.03904531
-0.115517154 0.14644259 -0.047575735 0.1053127 -0.06591771 0.0484171 -0.10872994 0.017340383
-0.13306877 0.011146208 -0.043029938 0.111488685 -0.13437167 0.03933541 -0.12604068 -0.0368801
0.040794395 -0.12888448 0.041600004 0.005840966 0.031023903 -0.07265204 -0.04576347 -0.05933455
0.15656076 -0.094257675 -0.047827262 0.04976664 0.1354445 -0.027252309 0.0046755243 0.048115153
-0.026534686 -0.027773967 0.03352108 -0.14137653 0.07724091 -0.030282073 0.05963099 -0.031138934
0.048389833 -0.08655049 -0.115585804 0.10383281 -0.09096091 -0.004645752 -0.10748824 0.02864414
-0.09919033 0.023622347 -0.08551416 -0.06049837 0.00456544 -0.015938153 0.041483823 -0.08011468
-0.0761241 0.0050812853 -0.03317992 0.022357615 -0.018649587 0.026000863 0.0625104 -0.096933514
-0.006219123 -0.10501204 -0.06837055 0.0062931194 -0.042197622 0.042880792 -0.106342115 0.105939
0.0466974 0.04510126 -0.05503149 -0.029170107 0.0673272 0.10350207 0.07183284 -0.051475983
0.04146611 -0.022609588 -0.03486333 0.010934286 0.00035942913 -0.01819362 -0.057919376 0.11347893
0.05240201 0.038013328 -0.11904184 -0.039294086 -0.09934508 0.065052286 -0.12349614 -0.06663967

conv2.lin_l.bias f4 [128]
00000000: 4d59 613d 2627 de3c 0ed6 4cbe d5b2 61bd
00000010: c72d d33d 405e 24bb 3d00 063d 37ce c9bd
00000020: 242a 973d beb5 683c 3337 b9bc b2b3 f2bd
00000030: 0f51 de3d 1171 9fbd f71b 2d3b 4306 393d
00000040: aefc 483d 6b0e 0fbe 5568 39be fee6 5e3d
00000050: 0212 30bc 6864 f0bc 3185 48bc 9e88 c5bc
00000060: aa16 8b3d d051 a1bc ed67 24bd d256 103d
00000070: f9aa 4abd daed 8abd e565 ae3d dd00 19bc
00000080: 3800 54bc d921 1bbe e024 9c3c 33d7 81bd
00000090: 7019 d3bd 5960 26bc 705f 993d da4a 753d
000000a0: 1481 98bc 1129 b1ba 2279 873c 2782 11bd
000000b0: c88c a23d ff07 033b 9fd0 0a3c 38c7 15be
000000c0: 0f65 4a3d 0011 8e3d 352a 923b ee00 a93c
000000d0: bf00 893d ae3e a5bc 979d 423c ab74 af3d
000000e0: 2789 98bc 64ca 0d3e fa83 ddbd 0a69 073d
000000f0: a65a b13d 3c82 843b 99c7 f23d b4a6 3bbd
00000100: 2661 4cbe d34d cf3c 3ef9 dc3a 908d c9bd
00000110: 86c1 3f3c 3c00 363d 5813 173e 396d 893c
00000120: ffa1 a33d 16a3 dbbc fba4 8cbd ff0b 6fbc
00000130: a9d7 e23c c616 dabc 1b08 173c d2bc a0bd
00000140: 50dd 0f3c ef0b 013d 361c bebc b436 86bd
00000150: a9f1 01bd fa83 1bbe c017 6c3d 6cc9 863d
00000160: b2da 4b3b 6626 e83d ca41 41bd 4ba7 48bd
00000170: dced 90bc 79e1 b0bd 971d 06be d45d 47bb
00000180: dc4d d53c 5e81 183e 467a bf3d a030 a7bd
00000190: 5279 28bd 9155 403b 1ceb 063c 85fa 083e
000001a0: b7df 1d3d 49a3 8b3d 58d5 023d 9601 41bd
000001b0: bffd 0bbd 69d2 26bd b508 303d 40ce ec3c
000001c0: f578 1d3d de9e 543d a06b 253d 9cf3 96bd
000001d0: bf41 733d 8863 32bd ab05 34be 4b13 4e3c
000001e0: feeb 983d c195 073d 2c98 013d 4599 8e3d
000001f0: 9938 4ebd afe9 cc3d d4c7 b13d b72f 593d
0.055016804 0.027118277 -0.2000353 -0.05510219 0.10311466 -0.0025080591 0.03271507 -0.098537855
0.073810846 0.014203487 -0.022609329 -0.118506804 0.108553044 -0.077852376 0.0026414373 0.045171987
0.0490691 -0.13970344 -0.18106206 0.05441951 -0.010746481 -0.029344752 -0.012238787 -0.024112996
0.06791432 -0.019692332 -0.040138174 0.03523905 -0.04947946 -0.06783648 0.085155286 -0.009338585
-0.012939505 -0.1514963 0.019060552 -0.06339874 -0.10307586 -0.010154807 0.074889064 0.059885837
-0.018616237 -0.0013516267 0.016537253 -0.035524514 0.07937008 0.001999378 0.008472591 -0.14626777
0.049412783 0.06936836 0.004460598 0.020630326 0.066895954 -0.02017149 0.011878393 0.085671745
-0.018620087 0.13846737 -0.10816188 0.033059157 0.08659868 0.0040438455 0.118544765 -0.045813277
-0.19958934 0.025305664 0.0016858948 -0.09841454 0.011703854 0.044433817 0.14753473 0.016775714
0.07989883 -0.026811164 -0.06867405 -0.014590262 0.027690725 -0.026622187 0.009218241 -0.078485146
0.008780792 0.03150552 -0.023206811 -0.065534025 -0.031724606 -0.15187064 0.057639837 0.06581387
0.0031105694 0.11335449 -0.047181882 -0.048987668 -0.017691545 -0.086367555 -0.13097225 -0.0030420916
0.026038103 0.148931 0.09349494 -0.08163571 -0.041131325 0.0029347877 0.008234765 0.13376816
0.03854343 0.068182535 0.03194174 -0.047120653 -0.034177538 -0.040728007 0.042977054 0.028906941
0.03844543 0.05190932 0.040385842 -0.073706836 0.059388872 -0.04355195 -0.17580287 0.012577842
0.07466887 0.0331018 0.031639263 0.069628276 -0.050346944 0.10005509 0.08680692 0.05302402

conv2.lin_r.weight f4 [128, 128]
00000000: 7ac3 50bd 6516 a83d e9b3 b73d b616 dcbc
00000010: d77e d8be 2a41 a23d 231a 03bd 0fdf 45bd
00000020: a304 a3bd f102 c63d e0ca 223d 899d ab3d
00000030: 3cf7 9e3c 0b81 d4bd 3a7f 61bd 6daf 563d
00000040: fc84 d13a 1c08 5fbc cf92 bdbd a926 c5bd
00000050: 642c 733d 2fb0 933c e63d c3b8 7d71 c93e
00000060: 47a2 04bd c21c d3bd 94d7 c5bc 3ddf 15bd
00000070: 610a 86bc f9f7 163d e944 503d 0592 acbd
00000080: 5937 cd3d 47cc 7fbe a43b 0c3c 6e44 0c3e
00000090: f83a f33b 8686 5b3d 6e18 9a3d 2eea fcbd
000000a0: cf37 43bc 51bf 433d 5610 00bd 0ba2 a93d
000000b0: 6f62 eebd 7c90 643d 785a 843c 221d a4bd
000000c0: 04e7 c0bc 5fcc 8a3d 3ba8 a9bd 7ce8 a6bc
000000d0: a936 0c3e 8e18 7e3c 2a9f babc 2ec6 0f3d
000000e0: 71c1 113c 1fd7 3a3d a9c6 fd3b faff 9bbe
000000f0: c97b b4bc 900d f93d 6856 35bd a7f2 c23d
00000100: 4426 3cbd 132d 0b3a ed79 96bd 2bf5 e1bd
00000110: de0c 97bc 24c5 1abc 94cb cb3d 5518 613d
00000120: 4373 703d bc7d 993e c93e 823c 3b5f 053e
00000130: 6109 a43b dde5 d0bc 3373 68bd 21a8 693c
00000140: 64f4 20bd f2a1 823d 1512 eabd 87ad f8bc
00000150: 4c20 0f3d 5916 cebc 73c1 9d3c a162 153c
00000160: 17e0 b63c 3a1c 98bc 3b05 323d 0b22 8abd
00000170: a8ea 033d cec4 babd 0d1b f33b 3899 ccbc
00000180: b704 743d 3e65 8dbd 0790 bd3c 81ad 263d
00000190: 7694 17bd b99e adbc 79db c73d b54b c4bd
000001a0: 3888 ac3c 2b96 803c 54e6 a9bd 9ed9 0cbd
000001b0: 7015 fe3d 49b9 613d 8766 813c f1bf b43d
000001c0: acc7 09be 53a7 cebd 3ac6 0dbe d969 f23d
000001d0: 8b97 b63d 8c92 a4bc 835d 5b3b 457f f23a
000001e0: 85c0 c13a 26fe 5a3d 78f8 23bc ba6f 4fbc
000001f0: 6f1f c63d 45ae 12ba 5d19 0d3d f8e5 c5bd
00000200: fb4a ed3a 2a1e 433c 5b65 a5bd 3d8f a6bd
00000210: 795c b2be b158 da3d de19 a6bc 5979 233d
00000220: 601e 79bd af68 6c3c 9994 8a3c 1552 b8bd
00000230: ae4a 10be 2c59 d6bd 3923 e2bd 712a 163c
00000240: 302f 3bbd 911e 9dbd 74e9 e1bd dcf5 78ba
00000250: add3 993d 7e72 093d eb99 18bd d052 273d
00000260: 1ace 2c3e cfcb 143d 1473 a83d 3934 e43c
00000270: 9618 9dbc cced 5e3d 4fa9 61bc 7286 d3bd
00000280: b6ee b0bd 1d97 183d b469 22bd 7ebc b23d
00000290: 3976 3d3d f54e 0f3e 7eec f8bc 9440 01be
000002a0: 2542 f6bd fe8c 9b3d bf85 47bd d6b5 163e
000002b0: 2b3d c6bc 2954 96bd 8397 a1bd 0964 d4bd
000002c0: 8c10 b33c e0e3 1c3d 9d6b 7a3c 3a35 a23c
000002d0: b786 db3d 6b00 b23d a1a3 c1bc fab7 a2bd
000002e0: fd1d eabc fb27 27bd 5316 cabd dc1a 9fbc
000002f0: c42f 103c d887 c5bc a942 c1bc 3952 973d
00000300: 235f 8abd 963d 05be 012b 13bd 367a c2bd
00000310: f3b2 9e3d 267c c23c bf89 e83d 6dcb 493a
00000320: 2872 413d a315 eabd 5166 e3bd 0f04 833d
00000330: 34fa eebd 6170 6e3c e04f 43bd 8a7f 89bd
00000340: 01ea 92bd d13d 5abc 77ce 9139 294c 8cba
00000350: 47e9 00bc 4b54 34bd 958a 803d 2dc9 e33a
00000360: 3fd6 c4bc 5b63 d6bd 2ec8 6b3d 9974 a93c
00000370: 4413 cb3b b6d6 5fbb 2a16 8cbc 93bc c3bd
00000380: 3aff 693d 6e89 883c a3bf a6bd a9aa 9abc
00000390: 7def 003d ac89 ea3d f02d 603d cb4d febd
000003a0: 3a8f 853d 0eaf af3c dbbe 13bd b3b1 b03d
000003b0: 3a19 bb3d d8f7 013e 0475 c2bc 011c 843d
000003c0: aec5 1a3e 4e44 7abc 8168 e2bd a5a7 0dbc
000003d0: 1695 b4bd e578 743c 7a1d 00be ed4e 233d
000003e0: c256 cbbc f37a fa3d 75a9 1bbd e382 b5bd
000003f0: 9c49 b3bc 496a c93d 53d3 2ebd 249c fdbb
-0.05096767 0.082073964 0.08969862 -0.026866298 -0.4228427 0.07922585 -0.032007348 -0.04830843
-0.07959869 0.0966853 0.039744258 0.08379657 0.019405 -0.103761755 -0.055052973 0.052413393
0.0015985067 -0.013612773 -0.09256517 -0.096265145 0.059368506 0.018028347 -9.309854e-05 0.39344397
-0.032381322 -0.103082195 -0.024150647 -0.03658985 -0.01636237 0.03685758 0.050846968 -0.084262885
0.10020322 -0.2498027 0.008559141 0.13697979 0.007422801 0.05359509 0.07524191 -0.12349354
-0.011915161 0.047789875 -0.03126558 0.0828286 -0.116398685 0.055801854 0.01615642 -0.08013369
-0.023547657 0.06777262 -0.082840405 -0.020374529 0.13692726 0.015508784 -0.022780973 0.03510111
0.008896218 0.04561531 0.0077446294 -0.30468732 -0.022031682 0.1216079 -0.044271857 0.095189385
-0.04593493 0.0005309146 -0.07347474 -0.1103309 -0.018438753 -0.009446416 0.09950939 0.054954845
0.058703672 0.2997874 0.015899079 0.13024609 0.005006001 -0.025500232 -0.056750488 0.014261276
-0.03929557 0.06378545 -0.1142923 -0.030356182 0.03494291 -0.02515714 0.019257283 0.009117753
0.022323651 -0.018568147 0.04346202 -0.067447744 0.032206208 -0.09119569 0.007418996 -0.024975404
0.05957481 -0.06904076 0.023139967 0.04069281 -0.037006818 -0.021193849 0.09758658 -0.095847525
0.021061048 0.015696606 -0.08295885 -0.034387223 0.12406433 0.055108342 0.01579596 0.088256724
-0.13455075 -0.10090508 -0.13845149 0.11836595 0.08915623 -0.02008941 0.0033472485 0.0018501064
0.0014782107 0.05346503 -0.01000797 -0.012660915 0.09673964 -0.0005595426 0.034448016 -0.09663004
0.0018104011 0.011909047 -0.08075973 -0.08132789 -0.34836176 0.10661448 -0.020276006 0.039910648
-0.060819983 0.014429255 0.01691656 -0.09000031 -0.14090988 -0.10466227 -0.110418744 0.009165392
-0.0456993 -0.07671846 -0.11030856 -0.0009497085 0.07511077 0.033556454 -0.037256163 0.04085046
0.16875497 0.03632718 0.082250744 0.027856933 -0.019176763 0.054426 -0.0137732765 -0.10328378
-0.086392805 0.037253488 -0.039651588 0.08727358 0.046255324 0.13994963 -0.030386206 -0.12622291
-0.12024335 0.075952515 -0.048711535 0.14717802 -0.024199089 -0.07340271 -0.07890227 -0.10370643
0.021858476 0.038303256 0.015284446 0.019800771 0.10719054 0.08691486 -0.023637595 -0.07945247
-0.028578753 -0.040809613 -0.09867539 -0.019421987 0.008800451 -0.024112627 -0.023591356 0.073887296
-0.06756427 -0.13011774 -0.035929684 -0.09495966 0.077489756 0.02374084 0.11354398 0.00076978543
0.04722801 -0.11429908 -0.111035 0.063972585 -0.11668816 0.01455316 -0.047683597 -0.06713779
-0.07173539 -0.013320402 0.00027810383 -0.001070385 -0.007868118 -0.0440257 0.062764324 0.0017378681
-0.024027942 -0.10468169 0.057563953 0.02068548 0.006197365 -0.0034155077 -0.017100412 -0.09557452
0.05712817 0.016667094 -0.081420206 -0.018880205 0.031478394 0.1145204 0.05473131 -0.124171816
0.06521459 0.021445777 -0.036070686 0.086276434 0.09135671 0.12692201 -0.023737438 0.06450654
0.15114471 -0.015275074 -0.11055089 -0.008645927 -0.088174984 0.014921402 -0.12511244 0.03987019
-0.024821643 0.12230482 -0.038003404 -0.08862855 -0.021885686 0.098347254 -0.042682003 -0.0077395607
