gnn_model_state.pt (torch, 528280 bytes, 6 tensors)

conv1.lin_l.weight f4 [128, 384]
0	0x3ce22f9f	0.027610598
1	0x3d6a6522	0.057225354
2	0xbdcbcff2	-0.09951772
3	0xbda8b217	-0.08237093
4	0xbd917e7a	-0.071042016
5	0xbc6d3e2e	-0.014480157
6	0xbda9dadd	-0.08293698
7	0x3da758a7	0.08171206
8	0xbd119860	-0.035545707
9	0x3dadea81	0.08491994
10	0x3cff692b	0.031178078
11	0x3d130d58	0.035901397
12	0xbddcf752	-0.1078936
13	0xbcc1def9	-0.023665892
14	0x3cfda308	0.030961528
15	0xbc8eaacb	-0.017415425
16	0xbd9acde1	-0.075587995
17	0xbdb6f701	-0.08933831
18	0x3de2d856	0.11076419
19	0x3dd1d4af	0.10245644
20	0xbc5f9f7f	-0.013648867
21	0xbd063ec4	-0.0327747
22	0xbc7f2976	-0.01557385
23	0xbdaf6f24	-0.0856612
24	0xbccc5233	-0.02494154
25	0xbd8c5cfa	-0.06853671
26	0xbdb694f3	-0.089151286
27	0x3c8aa0e3	0.01692242
28	0xbcd39bfa	-0.025831211
29	0x3cfbb561	0.030726137
30	0xbc4c6e4b	-0.012477468
31	0x3dc53d96	0.09630887
32	0x3dc78bc1	0.09743453
33	0x3da2b7b9	0.079451986
34	0x3dd4dffd	0.10394285
35	0xbcfafdc2	-0.03063858
36	0x3da2162a	0.07914384
37	0xbd793c12	-0.060848303
38	0x3db8054f	0.089853875
39	0x3d3ae4e8	0.04562846
40	0xbd866ebb	-0.06564089
41	0xbcaadea7	-0.020858122
42	0xbdcaa16e	-0.098940715
43	0xbd603ac4	-0.054743543
44	0xbd94b9dc	-0.07262012
45	0xbd11df36	-0.03561326
46	0xbda721b5	-0.08160726
47	0x3d115f7b	0.035491448
48	0xbdb5f45c	-0.088844985
49	0x3dc3907b	0.09549042
50	0x3d8dacdf	0.06917738
51	0x3cbea0b3	0.023269987
52	0x3d51cb01	0.05121899
53	0xbd7ceca8	-0.06174913
54	0x3d2ed65a	0.04268489
55	0xbd79c195	-0.06097563
56	0xbcac7f25	-0.021056721
57	0x3d8feced	0.07027612
58	0xbc300887	-0.010744221
59	0x3c9963d3	0.018724358
60	0x3d7b68da	0.06137929
61	0x3d02ea12	0.031961508
62	0x3c35fe77	0.011108032
63	0x3d794cca	0.060864247
64	0x3db53f2d	0.088499404
65	0x3db7d568	0.08976251
66	0xbdca0c84	-0.098656684
67	0xbd364691	-0.04450089
68	0x3db710f3	0.0893878
69	0xbdb41206	-0.087925
70	0x3dbdae9c	0.0926182
71	0xbcaa29b1	-0.020771833
72	0x3ddfaa58	0.10921162
73	0xbd1c5901	-0.03817082
74	0xbc61a3d1	-0.013771967
75	0xbddcf63e	-0.107891545
76	0xbd959b79	-0.07305045
77	0x3dc8cb09	0.09804351
78	0xbdbeb11b	-0.09311124
79	0x3dd05fa3	0.10174491
80	0xbd607141	-0.054795507
81	0xbd98b5b9	-0.07456536
82	0xbdb61370	-0.08890426
83	0xbd052425	-0.032505173
84	0xbd39fb60	-0.045405746
85	0x3dcb9dcf	0.09942209
86	0x3d41a031	0.04727191
87	0xbcbb3926	-0.022854399
88	0xbdd6d168	-0.1048916
89	0xbcc9cb4a	-0.024633069
90	0x3dd2e1e1	0.10296989
91	0x3c9917ba	0.018688072
92	0xbd93aa0e	-0.0721017
93	0x3d3ec91e	0.04657852
94	0x3d8f212b	0.06988748
95	0xbd3d331c	-0.04619132
96	0xbd0fdc06	-0.03512194
97	0x3dc5a2e2	0.09650208
98	0xbd016878	-0.03159377
99	0xbd741969	-0.059594546
100	0x3dc50c10	0.09621441
101	0xbdca5b30	-0.09880674
102	0xbd35d7a6	-0.04439511
103	0x3d747cb8	0.059689254
104	0xbd627710	-0.055289328
105	0x3d8a93b2	0.06766452
106	0xbdacdfb4	-0.084411055
107	0xbd958cf2	-0.07302274
108	0xbce32312	-0.027726684
109	0x3d7812cb	0.060564797
110	0xbcd7782e	-0.026302423
111	0xbddc2ed6	-0.10751121
112	0xbc8b7c7e	-0.017027136
113	0xbcb220a6	-0.021744084
114	0x3c14e6e2	0.00908825
115	0x3d165851	0.03670532
116	0xbdaf7df8	-0.085689485
117	0x3dbd3525	0.09238652
118	0xbdd5404a	-0.10412653
119	0xbdd66cab	-0.104699455
120	0x3d8bc375	0.0682439
121	0x3ccdf9b2	0.025143478
122	0x3d83cba4	0.06435326
123	0xbdb83b89	-0.089957304
124	0xbd948e6c	-0.07253727
125	0x3dc6a536	0.0969948
126	0x3d997214	0.07492462
127	0xbd188700	-0.03723812
128	0xbd5477ba	-0.051871993
129	0x3d0dff29	0.034667168
130	0xbd6abc07	-0.057308223
131	0xbd661140	-0.056168795
132	0xbd7dadb8	-0.06193325
133	0x3d3854f6	0.0450029
134	0x3c5b36aa	0.013379732
135	0xbdab9157	-0.08377331
136	0x3da80ef1	0.08205975
137	0xbcf10a7e	-0.029423948
138	0x3d9d2426	0.076729104
139	0xbd39b1aa	-0.04533545
140	0x3d4fe692	0.050757
141	0xbcee2169	-0.029068666
142	0xbd667efb	-0.05627344
143	0xbce50889	-0.027958171
144	0x3dc8c02e	0.0980228
145	0xbd35b532	-0.044362254
146	0x3ddd095b	0.107928
147	0x3d99acc2	0.07503654
148	0xbdc6e350	-0.09711325
149	0x3d5e1b3e	0.0542252
150	0x3d73c8a4	0.059517518
151	0x3dd14e41	0.10220004
152	0xbd863fd8	-0.06555146
153	0xbd74ee86	-0.059797786
154	0xbd788ecb	-0.060683053
155	0x3dcd054a	0.100107744
156	0x3da596af	0.08085381
157	0x3dd4fcb2	0.1039976
158	0x3d47c451	0.048771206
159	0xbc67237a	-0.014107579
160	0x3dafa944	0.08577207
161	0xbd841e08	-0.064510405
162	0xbcd85f85	-0.026412735
163	0x3ce4c3c8	0.027925387
164	0x3d030030	0.0319826
165	0x3dc29e09	0.09502799
166	0x3dde8e3d	0.108669735
167	0x3ca6cf33	0.020362472
168	0x3db60403	0.08887484
169	0xbddf737c	-0.10910699
170	0xbcc70d62	-0.024298374
171	0x3d8cd0cb	0.068757616
172	0x3d7a8180	0.061158657
173	0x3d98a144	0.07452634
174	0xbdbef7af	-0.09324586
175	0x3d9441b7	0.072390966
176	0x3d8fe65b	0.07026359
177	0x3d3cbd45	0.04607894
178	0xbcc1ba34	-0.023648359
179	0x3c7ebba4	0.015547667
180	0xbce37dc1	-0.027769925
181	0x3cdbe48f	0.026842384
182	0x3da8c97b	0.08241554
183	0xbdb9ee27	-0.09078627
184	0xbd766789	-0.060157333
185	0xbd768084	-0.060181156
186	0x3d937c9b	0.07201501
187	0xbcbb18f6	-0.02283905
188	0xbda66d10	-0.08126271
189	0xbccfdf88	-0.025375143
190	0x3ce7fee8	0.028319791
191	0xbd792324	-0.06082453
192	0x3ddc1c1e	0.107475504
193	0xbd1bd577	-0.038045373
194	0x3d9aaf83	0.075530075
195	0xbd21bc4e	-0.039486222
196	0xbdde63c8	-0.108588755
197	0xbd74950d	-0.05971246
198	0xbd629d1a	-0.055325605
199	0xbd5bcda4	-0.05366291
200	0x3dd012ef	0.10159861
201	0x3cf1bb24	0.02950818
202	0xbd4cb244	-0.049974695
203	0xbd4073cb	-0.04698543
204	0xbd18e5a8	-0.037328392
205	0x3de1331e	0.10996078
206	0x3d25656b	0.040379923
207	0xbd6ef0f5	-0.058335263
208	0x3d94b0eb	0.07260307
209	0x3d60afa2	0.054854997
210	0x3db5b274	0.08871928
211	0x3dcca673	0.09992685
212	0x3dca348e	0.09873305
213	0x3d5f9ab8	0.05459091
214	0xbdbed346	-0.09317641
215	0x3c99a627	0.018755985
216	0x3d423709	0.047415767
217	0x3db35568	0.08756524
218	0x3d635ece	0.055510335
219	0x3c8e65fa	0.01738261
220	0x3d7c2807	0.06156161
221	0xbda29c1f	-0.07939934
222	0xbc3f1020	-0.011661559
223	0x3d420806	0.047370933
224	0x3d856ecc	0.065152735
225	0x3c41fb47	0.011839694
226	0xbd0c0b45	-0.034190435
227	0xbd898228	-0.067142785
228	0x3cc0a55b	0.023516348
229	0x3d69812a	0.057007946
230	0x3cfbca16	0.03073601
231	0x3d9775c6	0.073955104
232	0xbd83ab31	-0.064291365
233	0x3d1ab57d	0.037770737
234	0x3da861cf	0.082217805
235	0x3d23e591	0.040013853
236	0xbd7a3e4c	-0.061094567
237	0x3dd4c82a	0.10389741
238	0xbd6a75c0	-0.0572412
239	0x3dbd4a58	0.092426956
240	0x3d1673d6	0.036731564
241	0xbdaadd61	-0.08343006
242	0xbcd92be5	-0.026510188
243	0xbd172d6f	-0.036908563
244	0xbdbca09c	-0.09210321
245	0xbd823559	-0.063578315
246	0x3d8c1a24	0.068409234
247	0xbd77170b	-0.06032471
248	0x3d8c804d	0.06860409
249	0xbda97fec	-0.08276352
250	0x3c44f034	0.0120201595
251	0xbd60cc23	-0.05488218
252	0x3dd9e66d	0.10639653
253	0xbd37c616	-0.044866644
254	0x3d2bd220	0.041948438
255	0x3d8a4d11	0.067529805

conv1.lin_l.bias f4 [128]
0	0xbdabf80c	-0.083969206
1	0xbbf7acd1	-0.007558443
2	0xbd9478b2	-0.07249583
3	0xbcc601d7	-0.0241708
4	0xbdaf6f3e	-0.0856614
5	0xbc172a15	-0.009226342
6	0xbd8d6916	-0.06904809
7	0xbd84b947	-0.06480651
8	0xba45576b	-0.000752798
9	0xbd9357fb	-0.07194515
10	0xbccfeb27	-0.025380684
11	0xbd2fd3d5	-0.04292663
12	0xbd09d19c	-0.033647165
13	0xbdae06f0	-0.08497417
14	0xbcf2e8a2	-0.029651944
15	0xbda8a276	-0.08234112
16	0xbd0abd5b	-0.03387199
17	0x3b84efbc	0.004056899
18	0xbdbbb36e	-0.09165083
19	0xbd1c6c72	-0.03818936
20	0xbd98541c	-0.074379176
21	0xbdc50574	-0.09620181
22	0xbe2de4a7	-0.16981755
23	0xbd926bd2	-0.07149471
24	0xbce040b9	-0.027374612
25	0xbd270a1a	-0.040781118
26	0xbd9cc0e5	-0.07653979
27	0xbdc2e3b6	-0.09516089
28	0xbda28979	-0.07936377
29	0xbd33acec	-0.043866083
30	0xbd7bc3c6	-0.061466
31	0xbda343dd	-0.07971928
32	0xbad23a1b	-0.0016039045
33	0xbd598949	-0.05310944
34	0xbdb7b051	-0.089691766
35	0xbd9ef17b	-0.077609025
36	0xbd3a8c77	-0.045544114
37	0xbd54b76d	-0.05193274
38	0xbd180bc7	-0.037120607
39	0xbdc0aa34	-0.09407464
40	0xbcc64c5d	-0.024206335
41	0xbd7068fe	-0.05869388
42	0xbd9108e2	-0.070817724
43	0xbac1a2d0	-0.0014773253
44	0xbd19b7b7	-0.03752872
45	0xbdd77ccd	-0.10521851
46	0xbd986b66	-0.074423596
47	0xbd6a9724	-0.057273045
48	0xbd90552e	-0.07047497
49	0xbd0287d8	-0.031867832
50	0x3e07b810	0.13253808
51	0xbcb5990f	-0.02216771
52	0xbd5f642b	-0.054538887
53	0xbd4af1d4	-0.04954703
54	0xbd881ef6	-0.0664653
55	0xbdc5b1fa	-0.09653087
56	0xbc8bc171	-0.017060013
57	0xbdd4821f	-0.10376381
58	0xbdedb097	-0.116059475
59	0xbd866e37	-0.065639906
60	0xbd9cdddc	-0.07659504
61	0xbd0bd9f2	-0.034143396
62	0xbcf5154f	-0.029917387
63	0xbdaa19f9	-0.08305735
64	0xb8c99513	-9.612194e-05
65	0xbce25241	-0.027627112
66	0xbde0fd80	-0.10985851
67	0xbb46e5df	-0.0030349416
68	0x3dc59843	0.09648182
69	0xbca34a5a	-0.019932915
70	0xbd501c56	-0.050808273
71	0xbd2b5a56	-0.041834198
72	0xbd12b486	-0.03581669
73	0xbd103434	-0.035206035
74	0xbd5da567	-0.054112818
75	0xbd4d9958	-0.050195068
76	0xbd80023e	-0.06250428
77	0xbf31b6e5	-0.694197
78	0xbd77ab45	-0.06046607
79	0xbdabcadc	-0.08388302
80	0xbddb2d19	-0.10701961
81	0x3bb686a2	0.0055702487
82	0xbdd5c634	-0.10438195
83	0xbd05bcea	-0.032650866
84	0xbd85a558	-0.065256774
85	0xbd953ec0	-0.07287359
86	0xbb80745f	-0.0039201225
87	0xbcc29929	-0.023754673
88	0xbdb9cb93	-0.09072032
89	0xbd0d864b	-0.0345519
90	0xbdacb6c9	-0.08433301
91	0xba1e470e	-0.00060378097
92	0xbd99601c	-0.074890345
93	0xbd327ee8	-0.04357806
94	0xbd1f3f6a	-0.038878836
95	0xbd91c20f	-0.07117092
96	0xbd484746	-0.048896097
97	0xbd5827e8	-0.052772433
98	0x3b86e5df	0.0041167582
99	0xbcee349c	-0.02907782
100	0xbd9a1524	-0.075235635
101	0xbc86b30e	-0.016442802
102	0xbd474a04	-0.04865457
103	0x3c5e4613	0.013566512
104	0xbda7b07a	-0.08187957
105	0xbda50212	-0.080570355
106	0xbdc7f4d1	-0.09763492
107	0xbd3d7320	-0.04625237
108	0xbbd1639e	-0.006390049
109	0xbdcb86c7	-0.09937816
110	0xbcd8926d	-0.026437009
111	0xbdedfefa	-0.116208985
112	0xbda18fc6	-0.07888751
113	0xbd3924f6	-0.045201264
114	0xbd213e91	-0.03936631
115	0xbcce3b46	-0.025174748
116	0xbda193f2	-0.078895465
117	0xbd45cfab	-0.04829375
118	0xbda657ad	-0.081221916
119	0xbda71c39	-0.0815968
120	0xbdd0a98f	-0.10188591
121	0xbdc7ffb0	-0.097655654
122	0xbd2bd55c	-0.041951522
123	0xbd82397d	-0.06358621
124	0x3e9925fc	0.29911792
125	0xbd473b05	-0.04864027
126	0xbc4700ec	-0.012146216
127	0xbd1c3705	-0.03813841

conv1.lin_r.weight f4 [128, 384]
0	0x3d2444be	0.04010462
1	0x3cd7edb8	0.02635847
2	0xbd22e130	-0.039765537
3	0xbd121a01	-0.03566933
4	0xbd30e4cb	-0.043186944
5	0xbde19c93	-0.11016192
6	0x3d39f0dc	0.045395717
7	0x3c171fdd	0.009223905
8	0xbc355338	-0.011067204
9	0x3d7a6fb5	0.06114169
10	0x3dd64490	0.10462296
11	0x3d97b0d1	0.07406772
12	0xbdbe2de9	-0.092861004
13	0xbcb77365	-0.022393892
14	0x3c91599d	0.017742926
15	0xbc63e16f	-0.013908728
16	0xbdced3ee	-0.10099016
17	0xbdd26eef	-0.10275065
18	0x3cb6be69	0.022307592
19	0x3dac119f	0.084017985
20	0xbd8ae368	-0.067816556
21	0xbcc7c1f7	-0.024384482
22	0xbdc818a7	-0.09770327
23	0xbcca7060	-0.024711788
24	0xbdd33254	-0.10312334
25	0xbd95c433	-0.07312813
26	0xbd038d46	-0.03211715
27	0x3c8d93ce	0.017282393
28	0xbdd23898	-0.10264701
29	0x3dd2de31	0.10296286
30	0xbdc3931b	-0.095495425
31	0x3d2d122e	0.042253666
32	0x3dcccc7f	0.09999942
33	0x3c8df5ac	0.01732906
34	0x3d7e3c64	0.06206931
35	0xbdd7d2b0	-0.10538232
36	0x3c840239	0.016114341
37	0xbd07ac4d	-0.033123303
38	0x3dc35a74	0.09538737
39	0x3d5df714	0.05419071
40	0xbdc215e4	-0.094768316
41	0xbddfb5db	-0.10923358
42	0xbcde30ef	-0.027122943
43	0xbd42cb29	-0.04755703
44	0xbd5cece1	-0.053936843
45	0xbd4282f4	-0.047488168
46	0xbd6caff4	-0.05778499
47	0x3d08da4b	0.033411305
48	0xbcac65d9	-0.021044658
49	0xbdac6dec	-0.084194034
50	0x3d8254c6	0.063638255
51	0xbcec1af5	-0.028821448
52	0x3dd037cf	0.10166895
53	0xbdcb2261	-0.09918667
54	0xbd18e869	-0.03733102
55	0xbdd5c77f	-0.104384415
56	0xbca40d67	-0.020025922
57	0x3d27e3a3	0.040988576
58	0x3c94007e	0.018066641
59	0x3ccc372f	0.024928657
60	0x3d6fb77b	0.05852459
61	0x3d3e8eb2	0.046522804
62	0x3ddfe97c	0.109332055
63	0x3da40b64	0.08009985
64	0x3d88039e	0.06641315
65	0x3d66abc9	0.05631617
66	0xbdcd7f74	-0.100340754
67	0xbc8dec2f	-0.017324535
68	0xbd154fa4	-0.036452904
69	0xbd967aea	-0.07347663
70	0x3dcd1d3b	0.10015341
71	0xbdca41ac	-0.09875807
72	0x3dc058c9	0.093919344
73	0xbdaa2cd8	-0.083093345
74	0xbdc4f2dd	-0.09616635
75	0xbc99c06f	-0.018768517
76	0xbdbdc586	-0.0926619
77	0x3da48baf	0.08034455
78	0xbdda1373	-0.10648241
79	0x3d7342f4	0.059390023
80	0xbdc11e02	-0.09429552
81	0xbdbf8f22	-0.09353472
82	0xbdbcf54a	-0.09226473
83	0xbd0ba4be	-0.034092657
84	0xbd47be84	-0.048765674
85	0x3d937c24	0.07201412
86	0x3d135614	0.035970762
87	0xbdba16d4	-0.09086385
88	0xbddfaae0	-0.10921264
89	0xbd8c918a	-0.06863697
90	0x3d8069eb	0.06270202
91	0x3dcbac8e	0.099450216
92	0xbc95cfca	-0.018287558
93	0x3d02710c	0.03184609
94	0xbd3bdd85	-0.045865554
95	0xbced0fd0	-0.028938204
96	0xbdb97108	-0.09054762
97	0x3d955638	0.072918355
98	0xbd2308f6	-0.039803468
99	0xbdd3b36d	-0.10336957
100	0x3da7feee	0.08202921
101	0xbc829a9b	-0.015942862
102	0xbdcca85f	-0.09993052
103	0x3d69e587	0.05710366
104	0xbd7f170e	-0.062277846
105	0x3c78d2c8	0.015186973
106	0xbd4fb435	-0.05070897
107	0xbd9cef31	-0.0766281
108	0xbcf21c25	-0.029554436
109	0x3d6776f0	0.056509912
110	0xbc86ffe9	-0.01647945
111	0xbdd12ad3	-0.10213246
112	0xbca9b1c6	-0.020714652
113	0xbdd3c052	-0.103394166
114	0xbd5624d2	-0.05228121
115	0x3d6a5282	0.05720759
116	0xbc69b0b0	-0.014263317
117	0x3cba360d	0.022730852
118	0xbd8d6c24	-0.06905392
119	0xbdbeb4fb	-0.09311863
120	0x3d6a3542	0.057179697
121	0x3cb13580	0.021631956
122	0x3d0e7fd7	0.034789886
123	0xbcfec271	-0.031098576
124	0xbd46b450	-0.048511803
125	0x3c8c14a2	0.017099682
126	0x3d78c283	0.060732376
127	0xbd416d8c	-0.047223613
128	0xbdbc9994	-0.0920898
129	0xbcbba65b	-0.022906473
130	0xbd9d3526	-0.07676153
131	0xbccd4d4d	-0.025061274
132	0xbdd2f082	-0.102997795
133	0x3d020832	0.031746097
134	0x3d05a4fe	0.032628052
135	0xbcb3c9b0	-0.021946758
136	0x3d9f1d36	0.077692434
137	0xbd24975f	-0.04018342
138	0x3cda6baa	0.026662666
139	0xbc2b1672	-0.010442363
140	0x3c1392c1	0.009007157
141	0xbdbadd7a	-0.091242746
142	0xbc9c9d5f	-0.01911801
143	0x3d9e459e	0.07728122
144	0x3c256ac1	0.010096253
145	0xbccbc269	-0.024872975
146	0x3dc6dec0	0.09710455
147	0x3d42f219	0.047594164
148	0xbdd1403a	-0.10217328
149	0x3d671898	0.05641994
150	0x3dce294a	0.10066469
151	0x3c8a50ce	0.016884234
152	0x3ddbfb01	0.107412346
153	0x3d858463	0.065193914
154	0xbd9e0f46	-0.07717757
155	0x3dcb47e8	0.099258244
156	0x3c1d5750	0.009603336
157	0xbcf0ddc7	-0.029402627
158	0x3ca7f5cc	0.020502947
159	0xbd9bbff7	-0.07604974
160	0x3da49d27	0.08037787
161	0xbd9a6088	-0.07537943
162	0xbcd513c1	-0.026010396
163	0x3c15911e	0.009128837
164	0x3d97155a	0.07377119
165	0x3d4b82c8	0.04968527
166	0xbdd322a7	-0.10309344
167	0x3dcf2be3	0.101157926
168	0x3d136a51	0.035990063
169	0xbd4ac30d	-0.04950242
170	0xbdcdd8d1	-0.1005112
171	0x3d3d62d6	0.046236835
172	0x3dca82df	0.09888243
173	0x3d29e8d5	0.04148181
174	0xbd97b98e	-0.074084386
175	0xbd50237f	-0.0508151
176	0x3d512b6a	0.051066794
177	0x3d6ca437	0.057773795
178	0xbcd370b6	-0.02581058
179	0x3d355b9b	0.044276815
180	0x3dbc1a8f	0.09184753
181	0x3d37b359	0.044848774
182	0x3d286b06	0.04111769
183	0x3c1b333c	0.009472664
184	0xbd4ea4b7	-0.050450053
185	0xbd15afb5	-0.03654452
186	0xbd88578d	-0.06657324
187	0xbd8fcf11	-0.07021917
188	0xbc9e7bcc	-0.01934614
189	0xbd4bdf75	-0.049773652
190	0x3d851785	0.064986266
191	0xbcd8f930	-0.02648601
192	0xbd4c34d7	-0.04985508
193	0xbd6dbc7d	-0.058041085
194	0x3d52f063	0.051498782
195	0xbd5b282d	-0.05350511
196	0xbcb829ac	-0.022480808
197	0x3c42d697	0.0118919825
198	0x3c8e2d22	0.017355505
199	0xbc8f3c24	-0.017484732
200	0x3d4891c7	0.04896715
201	0x3c98dcb5	0.018659929
202	0xbd79e90f	-0.061013278
203	0xbdddf1d6	-0.10837142
204	0xbd5f1de8	-0.05447188
205	0x3d1be4ca	0.038059987
206	0x3d655104	0.055985466
207	0xbd637448	-0.055530816
208	0x3cb2672f	0.021777717
209	0x3d4522c9	0.048128877
210	0x3ca15395	0.019693175
211	0x3cd8a00e	0.026443508
212	0x3d2b9c7b	0.04189728
213	0x3dca2aad	0.09871421
214	0xbd8a3142	-0.067476764
215	0x3da461f7	0.08026498
216	0x3d3ecb37	0.04658052
217	0x3c932455	0.01796166
218	0x3d59b065	0.05314674
219	0x3d6f8b2f	0.058482345
220	0x3daf8a2a	0.085712746
221	0xbdb3aff9	-0.087737985
222	0xbd3b64c7	-0.045750406
223	0xbd48902a	-0.04896561
224	0x3d7a7aa6	0.061152123
225	0xbd06e131	-0.032929603
226	0xbc158135	-0.009125044
227	0xbc95de03	-0.01829434
228	0x3dbe03a3	0.092780374
229	0x3d49675c	0.049170837
230	0x3da378f2	0.07982053
231	0xbd9e952c	-0.07743296
232	0x3c3f2f99	0.011669063
233	0x3da33f7a	0.079710916
234	0x3dd349f9	0.103168435
235	0x3d10698c	0.035256907
236	0xbc896762	-0.01677293
237	0x3d8ffe7c	0.07030961
238	0xbdaafb11	-0.08348668
239	0xbdd797a6	-0.105269715
240	0x3dd9be6d	0.10632024
241	0xbd32776c	-0.04357092
242	0x3d5fe658	0.054663032
243	0xbd90a670	-0.070629954
244	0xbd38674d	-0.04502039
245	0xbce9115b	-0.028450659
246	0x3d0763f3	0.033054303
247	0xbd5f731f	-0.054553147
248	0x3dc6a994	0.09700313
249	0xbccb6d9b	-0.024832537
250	0x3d588a55	0.0528663
251	0xbdd2b6d5	-0.10288779
252	0x3d391cc2	0.04519344
253	0x3d0edca0	0.034878373
254	0x3cdc267a	0.026873816
255	0x3ccc5bc4	0.024946101

conv2.lin_l.weight f4 [128, 128]
0	0x3da8b81e	0.082382426
1	0xbd88a1f3	-0.06671514
2	0x3b3bc331	0.0028650279
3	0x3cd0a88d	0.025470996
4	0xbe1659c2	-0.14682677
5	0xbddc1e3d	-0.10747955
6	0xbd724410	-0.05914694
7	0xbd884d90	-0.06655419
8	0xbd3bc6dd	-0.045843948
9	0xbdbf541b	-0.09342214
10	0x3d4436f5	0.047903974
11	0x3d0dac06	0.034587882
12	0x3b162e7d	0.0022915893
13	0x3d97137b	0.073767625
14	0xbda7e6c7	-0.08198314
15	0x3b9574d7	0.0045610475
16	0xbd8a9a06	-0.06767659
17	0xbda88a32	-0.08229484
18	0xbdfbedc8	-0.123012125
19	0x3d32a657	0.043615665
20	0xbdd4ef6f	-0.10397231
21	0xbd334816	-0.04376992
22	0x3db748b7	0.08949416
23	0xbdba1917	-0.09086817
24	0xbde9037f	-0.1137762
25	0xbd7395cf	-0.05946904
26	0xbd829caa	-0.063775375
27	0x3dd0b78b	0.10191258
28	0x3d7d334c	0.0618165
29	0xbdad7929	-0.08470375
30	0xbd615875	-0.055016
31	0xbd1fbfac	-0.039001152
32	0x3c585d3a	0.013205821
33	0x3c1d9116	0.009617111
34	0x3d4f419d	0.050599683
35	0xbc2b6805	-0.010461812
36	0x3d3f4ff6	0.046707116
37	0xbde12159	-0.10992689
38	0xbcf400e0	-0.029785573
39	0xbd060775	-0.032721955
40	0xbcd182dc	-0.025575094
41	0xbde7abb1	-0.113120444
42	0xbd62be93	-0.055357527
43	0xbd89435b	-0.067023
44	0xbdb6cacc	-0.08925399
45	0xbdc635c3	-0.09678223
46	0x3d6b3cee	0.057431154
47	0x3c9b2622	0.018939082
48	0x3cf347d4	0.029697336
49	0xbd89a785	-0.06721405
50	0xbe0e0817	-0.13870274
51	0xbda91652	-0.082562104
52	0xbd32b340	-0.043627977
53	0x3c10bbec	0.008833867
54	0xbe010b85	-0.1260205
55	0xbd6e067f	-0.058111664
56	0xbe01d028	-0.12677062
57	0xbe029ec8	-0.12755883
58	0xbcf7d4fb	-0.030252924
59	0x3afd2974	0.0019314722
60	0xbdf27e0e	-0.11840449
61	0x3d0f2894	0.034950808
62	0xbd9cd4b3	-0.07657757
63	0xbc98958e	-0.018626
64	0x3cb3b130	0.021935076
65	0x3d211413	0.039325785
66	0x3c6a6c9c	0.014308121
67	0xbda72a6e	-0.0816239
68	0x3dfd136c	0.1235722
69	0xbda1d9ed	-0.07902894
70	0x3e8491f2	0.25892597
71	0x3d035444	0.032062784
72	0xbdefa2b3	-0.11700954
73	0x3c443dda	0.011977637
74	0xbd1d478c	-0.03839831
75	0x3c412dfc	0.011790749
76	0x3d2f0955	0.04273351
77	0xbbaa7653	-0.0052020936
78	0x3cb02225	0.021500656
79	0x3df2e892	0.118607655
80	0xbc91dba3	-0.017804926
81	0xbb654157	-0.0034981573
82	0xbc7a7e4e	-0.015288902
83	0xbddc7dc9	-0.10766179
84	0xbd18ef76	-0.037337743
85	0xbd90a1d6	-0.07062118
86	0xbd85f56b	-0.065409504
87	0x3ca4f956	0.020138424
88	0xbba87aba	-0.0051415833
89	0x3d044e3d	0.032301176
90	0xbdc99c17	-0.09844225
91	0x3d1ee9cb	0.03879718
92	0xbdfea3ff	-0.124336235
93	0xbde265c1	-0.11054564
94	0xbd365395	-0.044513304
95	0xbda151dc	-0.078769416
96	0xbd2ad354	-0.041705444
97	0xbcd57d0d	-0.026060605
98	0xbdf587be	-0.119887814
99	0x3e010f18	0.12603414
100	0x3c069b7e	0.008215783
101	0xbe06bbfa	-0.13157645
102	0x3dec1d8b	0.115290724
103	0xbd6fa1da	-0.058503963
104	0xbc7234df	-0.014783113
105	0x3db68114	0.089113384
106	0x3d8c321a	0.068454936
107	0x3cc79c11	0.02436641
108	0xbd93d8fd	-0.072191216
109	0x3dd5f4f0	0.10447109
110	0xbd9928e3	-0.07478502
111	0xbdc4b7a1	-0.09605337
112	0x3c636b98	0.013880633
113	0xbd00aa39	-0.031412337
114	0xbdd01514	-0.1016027
115	0x3dc8da0a	0.09807213
116	0x3d10e699	0.035376165
117	0xbd677d52	-0.056516
118	0xbc80d85f	-0.015728174
119	0x3c170dec	0.009219628
120	0xbdf7b3a3	-0.1209481
121	0x3cfad146	0.030617367
122	0xbe087004	-0.1332398
123	0x3c6fcef6	0.014636746
124	0xbd67ec07	-0.056621578
125	0x3d8b8705	0.06812862
126	0xbdc006db	-0.093763076
127	0xbda81d36	-0.082086965
128	0x3df7b167	0.12094384
129	0x3ccae132	0.024765585
130	0xbdd523c6	-0.10407214
131	0xbd1f8b91	-0.03895146
132	0xbcb66ecf	-0.022269635
133	0xbca4e530	-0.020128816
134	0xbcaec38a	-0.021333475
135	0xbcba2f11	-0.022727521
136	0xbc54a1d9	-0.012978041
137	0x3b4e9880	0.0031524003
138	0xbc142018	-0.009040855
139	0xbd7e6c01	-0.06211472
140	0x3c3041ce	0.010757877
141	0x3d0f29fb	0.034952145
142	0xbd24c486	-0.04022648
143	0xbb7ebe1e	-0.0038870643
144	0xbca2b289	-0.019860523
145	0x3b1d8788	0.0024037082
146	0xbd113739	-0.035453055
147	0xbd0e3391	-0.034717146
148	0x3aba46fb	0.0014211828
149	0xbcf63f88	-0.030059591
150	0x3d1e8244	0.03869845
151	0x3c5e48ad	0.013567132
152	0xbe024aca	-0.12723842
153	0xbd0f8573	-0.035039376
154	0xbd708820	-0.05872357
155	0x3db705ed	0.08936677
156	0x3d93f7e0	0.07225013
157	0xbe00cb0c	-0.12577456
158	0x3d255c4c	0.040371224
159	0xbb012967	-0.0019708516
160	0x3d207d86	0.03918221
161	0xb9e686d4	-0.00043969473
162	0x3d846bca	0.06465872
163	0x3a2a6221	0.00064996077
164	0x38fd09c5	0.000120658
165	0xbd48808a	-0.04895071
166	0xbc2df1da	-0.010616744
167	0xbda1c4fb	-0.07898899
168	0x3d00d71d	0.031455148
169	0xbcc3d3b0	-0.023904651
170	0x3b2429f6	0.0025049425
171	0xbdcdc34c	-0.100470155
172	0xbc4ce11c	-0.012504842
173	0xbd4b78d0	-0.049675763
174	0x3c6565e9	0.014001348
175	0x3c127a47	0.008940286
176	0xbddaf8af	-0.10691964
177	0xbcc5dfa9	-0.024154501
178	0xbd87c6e9	-0.06629736
179	0xbda4a93e	-0.08040093
180	0xbc2ae19c	-0.010429766
181	0xbdfba918	-0.122881114
182	0xbdcec291	-0.10095704
183	0xbdcfecfb	-0.10152622
184	0x3c41117f	0.011783957
185	0xbdfac88a	-0.12245281
186	0x3c9bd6fa	0.019023407
187	0xbc5f8eac	-0.0136448555
188	0xbd7e9f2c	-0.062163517
189	0xbdff1692	-0.12455477
190	0xbbc915c2	-0.006136627
191	0x3dc09cd0	0.094049096
192	0x3b3e6f7c	0.002905815
193	0xbd961fed	-0.07330308
194	0x3d63572b	0.05550305
195	0xbd8da9b0	-0.06917131
196	0x3d89f928	0.06736976
197	0x3d01ba91	0.031672064
198	0x3dfa8d50	0.122339845
199	0xbde7b067	-0.11312943
200	0xbcc3c717	-0.023898644
201	0xbe03ff0c	-0.12890261
202	0x3d1ce0df	0.03830039
203	0xbd5ec9f8	-0.05439183
204	0xbc7f09fb	-0.015566344
205	0x3d27d103	0.040970813
206	0x3d8a2279	0.067448564
207	0x3c2466d7	0.010034285
208	0x3c9fa3af	0.01948723
209	0xbdbd63ca	-0.09247549
210	0x3d23822d	0.039919067
211	0xbd6f0c38	-0.058361262
212	0xbd795c8f	-0.060879286
213	0x3c5d0b44	0.013491455
214	0xbddda285	-0.10822014
215	0xbd778058	-0.060425133
216	0xbd44d882	-0.04805804
217	0xbce867c9	-0.028369801
218	0xbdd7c8d5	-0.105363525
219	0xbdad3138	-0.08456653
220	0xbda0d11a	-0.07852383
221	0xbe01951d	-0.12654538
222	0xbd6f0536	-0.05835458
223	0xbd33c521	-0.04388917
224	0xbd3b1c4d	-0.045681287
225	0xbd7eaa53	-0.062174153
226	0xbda7273a	-0.08161779
227	0x3d6d4243	0.05792452
228	0xbdc130ad	-0.09433112
229	0xbdfb5c24	-0.12273434
230	0x3ade52a6	0.0016961887
231	0xbd6fa1a4	-0.058503762
232	0xbc3a6ae2	-0.011378022
233	0xbd187cfc	-0.03722857
234	0x3d655050	0.055984795
235	0x3c81955d	0.015818292
236	0x3cc1965f	0.023631273
237	0x3d90f06b	0.07077106
238	0xbddd31bd	-0.108005024
239	0xbdd6904a	-0.1047674
240	0xbe07726b	-0.1322724
241	0xbce0b558	-0.027430221
242	0x3c8e2db3	0.017355775
243	0xbd128760	-0.035773635
244	0xbd010359	-0.031497333
245	0xbc03017e	-0.007995961
246	0xbdddcdd8	-0.10830277
247	0xbd32fdca	-0.043699063
248	0xbca89767	-0.020580007
249	0xbd352786	-0.044227146
250	0xbd86a8ba	-0.06575151
251	0xbd12ff80	-0.035888195
252	0xbc8dd4cf	-0.01731339
253	0x3c4e4ef0	0.012592062
254	0x3cd59858	0.02607362
255	0x3d0b1616	0.03395661

conv2.lin_l.bias f4 [128]
0	0xbe39493b	-0.18094341
1	0xbdce59e8	-0.10075742
2	0xba48a9d9	-0.0007654704
3	0x3e499136	0.196843
4	0x3e940a9a	0.28914338
5	0xbdb4ff7c	-0.08837792
6	0x3c627dab	0.013823907
7	0xbe1b3644	-0.1515742
8	0xbbaa1863	-0.0051908954
9	0xbe1f0154	-0.1552785
10	0xbe963786	-0.29339236
11	0x3da000be	0.078126416
12	0xbdbd4965	-0.092425145
13	0xbe7f1bce	-0.2491295
14	0xbd5503fa	-0.052005745
15	0xbe0ed2d6	-0.13947615
16	0x3d6822bb	0.056673747
17	0x3dc5cc7b	0.09658142
18	0xbc9e1253	-0.019295847
19	0xbd74e0d5	-0.05978473
20	0x3e1292e2	0.14313844
21	0x3dd974b9	0.10617966
22	0x3e80b483	0.2513772
23	0x3e6b4a5a	0.22977582
24	0x3dc22dbd	0.0948138
25	0x3e2541f6	0.16138443
26	0x3cb711d8	0.022347376
27	0xbe20f82d	-0.15719672
28	0xbcfb8099	-0.030700969
29	0xbd80171a	-0.06254406
30	0x3e0e548c	0.1389944
31	0x3da6213a	0.08111806
32	0x3da774a8	0.08176547
33	0xbe33189f	-0.17489861
34	0xbe7234e0	-0.23652983
35	0x3c95d433	0.018289661
36	0x3e307c45	0.17234905
37	0x3e983a09	0.29731777
38	0x3bc12b96	0.0058950884
39	0xbd76fdd6	-0.06030067
40	0x3e263b33	0.1623352
41	0xbde003a2	-0.10938193
42	0x3e88fd7b	0.2675589
43	0xbc748a60	-0.014925569
44	0xba8df4e1	-0.0010830426
45	0xbe074dd4	-0.13213283
46	0x3c40c79a	0.011766339
47	0x3d67e536	0.056615077
48	0xbd703659	-0.05864558
49	0x3d2a17f1	0.04152674
50	0xbddd0de4	-0.10793665
51	0xbe0794b8	-0.13240325
52	0x3cdaf93a	0.026730169
53	0x3e5d026c	0.21582955
54	0xbda936c2	-0.08262397
55	0xbdafd2ee	-0.085851535
56	0xbd7f9463	-0.062397372
57	0x3c9d7f2d	0.019225681
58	0xbec68de9	-0.38780144
59	0xbddb2db8	-0.107020795
60	0xbe9d4a84	-0.30720913
61	0xbe600969	-0.2187859
62	0x3db6414a	0.08899172
63	0xbe920b58	-0.2852428
64	0xbd7c4366	-0.061587714
65	0x3e449a59	0.19199504
66	0x3cf513eb	0.029916724
67	0xbd874c8c	-0.06606397
68	0x3cb11494	0.021616258
69	0x3eb14bb8	0.3462808
70	0xbe348096	-0.17627177
71	0xbc2110ae	-0.009830637
72	0x3c58c163	0.013229701
73	0xbc146c4b	-0.009059022
74	0x3d4d7392	0.050159045
75	0x3bfb16ef	0.007662646
76	0xbceb6174	-0.028732993
77	0x3d4f49ff	0.050607678
78	0x3d7272f5	0.059191663
79	0xbd33c510	-0.043889105
80	0xbd269589	-0.04066995
81	0x3e4178d9	0.18893756
82	0xbdeda003	-0.116027854
83	0x3dcc36cc	0.09971389
84	0xbd877464	-0.066139966
85	0x3e371bb3	0.1788166
86	0xbe68530f	-0.22687934
87	0x3d73b9db	0.059503417
88	0x3d86ff0c	0.06591615
89	0x3e8a422c	0.2700361
90	0xbdff20cc	-0.124574274
91	0xbd8dbc72	-0.06920709
92	0x3d9db834	0.077011496
93	0x3c7d1c55	0.015448649
94	0xbe29b4c2	-0.1657286
95	0xbe22d3b6	-0.15901074
96	0xbb96667d	-0.0045898543
97	0xbde220d5	-0.110414185
98	0x3cc8515d	0.02445286
99	0xbd40860f	-0.04700285
100	0x3dc4e972	0.09614839
101	0x3d8b6f6d	0.06808362
102	0xbe0ea410	-0.13929772
103	0x3dc8bf75	0.098021425
104	0xbd5ff8eb	-0.054680746
105	0x3eadefe3	0.33972082
106	0x3de22a13	0.11043181
107	0xbdcb0192	-0.09912409
108	0x3d101e1d	0.03518497
109	0x3dbaefe3	0.09127786
110	0xbbc81459	-0.0061059413
111	0x3e0f3337	0.1398438
112	0x3e779583	0.24178128
113	0xbd6842eb	-0.056704443
114	0xbe2dd471	-0.16975571
115	0x3d96111d	0.07327483
116	0xbe8075c6	-0.25089854
117	0xbe1c63eb	-0.1527249
118	0x3d7848e3	0.060616385
119	0x3de40752	0.11134209
120	0xbd7287e5	-0.05921163
121	0x3d9aa036	0.07550089
122	0x3d63a265	0.055574793
123	0xbdaeb709	-0.08531005
124	0xbd36f619	-0.04466829
125	0x3d882596	0.06647794
126	0xbe739fe0	-0.23791456
127	0x3df80425	0.121101655

conv2.lin_r.weight f4 [128, 128]
0	0x3dcfae06	0.10140614
1	0x3a6f48bd	0.00091279653
2	0x3cfa8ebf	0.030585645
3	0x3cc8e32e	0.02452239
4	0x3c9b7f87	0.018981708
5	0x3d13cb62	0.036082633
6	0x3c8933c0	0.01674831
7	0xbdbfe801	-0.09370423
8	0xbdf94593	-0.12171473
9	0xbdd125b3	-0.10212269
10	0xbc99fb8c	-0.018796705
11	0xbd9ea788	-0.07746798
12	0xbd852025	-0.06500272
13	0x3d966860	0.07344127
14	0xbcc275f5	-0.023737887
15	0xbd97974e	-0.07401906
16	0xbdc27b64	-0.09496191
17	0xbd7be7fa	-0.061500527
18	0x3d94d5f3	0.0726737
19	0xbda0e855	-0.07856814
20	0xbda3c9b6	-0.07997458
21	0x3d26472a	0.04059521
22	0x3ce03b2c	0.027371965
23	0xbdbbc35d	-0.09168122
24	0xbde6622d	-0.11249194
25	0xbd95d2af	-0.07315575
26	0x3cf5991c	0.029980235
27	0x3dd6d9fa	0.104907945
28	0x3d6202b1	0.055178348
29	0xbc9f4a30	-0.019444555
30	0x3cb4223d	0.021988982
31	0x3c2a1009	0.0103798
32	0x3d4867cc	0.048927113
33	0x3da545fc	0.08069989
34	0xbd4358fa	-0.047692277
35	0xbd3a6a27	-0.04551139
36	0xbd92adb9	-0.07162041
37	0xbd353d7f	-0.0442481
38	0x3c0ffe95	0.008788724
39	0x3bf41a3d	0.007449417
40	0xbd826550	-0.0636698
41	0xbb8ca62c	-0.00429227
42	0xbdb2eb37	-0.0873627
43	0x3c2ed272	0.010670291
44	0x3cf29c17	0.029615445
45	0xbd2cfc53	-0.042232823
46	0x3dd00244	0.10156682
47	0x3c0543d9	0.008133852
48	0xbcd25c2e	-0.02567872
49	0xbdb18fff	-0.08670043
50	0x3e107a95	0.14109261
51	0x3bad444b	0.005287682
52	0x3d54cbf9	0.051952336
53	0xbccc01af	-0.024903147
54	0xbd9b43e2	-0.07581307
55	0xbddcf8e1	-0.107896574
56	0xbe00b953	-0.12570696
57	0xbd082109	-0.03323463
58	0xbd098ff4	-0.03358455
59	0x3d0c3b17	0.03423604
60	0x3d26c055	0.040710766
61	0x3b08a53d	0.0020850443
62	0xbdff2404	-0.12458041
63	0xbcb9ebdf	-0.02269548
64	0x3be9a3b1	0.0071301092
65	0x3cf9322e	0.030419435
66	0xbbdc1003	-0.006715776
67	0xbd466c35	-0.048443038
68	0x3e4ab4e3	0.19795565
69	0xbd917ac7	-0.07103496
70	0x3d2c498a	0.04206232
71	0x3ce7caa7	0.028294874
72	0xbd8d8288	-0.069096625
73	0xbde75b85	-0.11296753
74	0xbd984757	-0.07435482
75	0xbd5a952b	-0.053364914
76	0xbc3f141c	-0.011662509
77	0x3c0feb1a	0.00878408
78	0x3d4b0317	0.049563494
79	0x3c3927e7	0.011301017
80	0xbc94ccea	-0.018164117
81	0x3ce8be34	0.028411008
82	0xbdf555b6	-0.11979239
83	0xbca20240	-0.019776464
84	0xbdd931f0	-0.10605228
85	0xbc70a22f	-0.014687105
86	0x3c5fd2eb	0.013661127
87	0x3cc8c891	0.0245097
88	0x3ad3bf05	0.0016154951
89	0x3e072f65	0.13201673
90	0x3defba47	0.117054515
91	0xbe00c958	-0.12576807
92	0xbc902d20	-0.017599642
93	0x3b52145a	0.0032055588
94	0xbd48707f	-0.04893541
95	0xbca9c8b3	-0.020725584
96	0xbd4af837	-0.049553122
97	0xbd0653ca	-0.03279475
98	0x3d3ddc7e	0.046352856
99	0x3dfaf9da	0.12254687
100	0xbd1373b0	-0.035999
101	0xbc065095	-0.008197923
102	0x3c853496	0.016260426
103	0xbb0d856c	-0.0021594418
104	0x3dc6274a	0.096754625
105	0xbbbd4f7c	-0.0057772975
106	0x3db071b6	0.08615439
107	0x3ce3d27d	0.02781033
108	0xbcf2a639	-0.029620277
109	0x3d4073ad	0.046985317
110	0xbd610d32	-0.054944225
111	0xbd15b989	-0.036553893
112	0xbdc9272d	-0.09821925
113	0xbc5f9853	-0.013647157
114	0xbdd759cf	-0.105151765
115	0x3c0f5e42	0.0087505
116	0xbd2d1386	-0.042254947
117	0xbde32930	-0.1109184
118	0xbd8ad184	-0.06778243
119	0x3df39322	0.11893298
120	0x3dbf0c5d	0.0932853
121	0x3cc7d2ea	0.024392564
122	0xbc64d466	-0.013966655
123	0x3c80468a	0.015658636
124	0x3e3f24b0	0.18666339
125	0x3b2f01b6	0.00267039
126	0xbd940f35	-0.07229463
127	0xbd9f35fc	-0.077739686
128	0x3cdfeee2	0.027335588
129	0xbd69fa89	-0.057123695
130	0x3d10e442	0.035373934
131	0x3b02c891	0.0019955973
132	0xbdcebd75	-0.1009473
133	0x3c7510d4	0.014957625
134	0xbd3d340e	-0.04619222
135	0xbcde024c	-0.027100705
136	0xbbfb1702	-0.007662655
137	0x3d198338	0.037478656
138	0xbdc28109	-0.09497268
139	0xbd5ace56	-0.053419434
140	0x3c25e6e0	0.010125846
141	0x3db6efa6	0.08932428
142	0xbda70cf6	-0.08156769
143	0xbdfc67d0	-0.12324488
144	0x3c8c2647	0.017108096
145	0xbd9bf47e	-0.076149926
146	0xbd20b499	-0.03923473
147	0x3c206c11	0.00979139
148	0x3ca02c94	0.019552507
149	0xbc722899	-0.014780187
150	0x3c647ece	0.013946248
151	0xbdf7d9b3	-0.1210207
152	0x3b8ae225	0.0042383843
153	0xbccb9e45	-0.024855742
154	0xbca08c20	-0.019598067
155	0xbc13e867	-0.009027577
156	0x3b862c3c	0.0040946286
157	0x3cf1b981	0.0295074
158	0xbdd8059a	-0.105479434
159	0xbd27c97c	-0.040963635
160	0x3d1fa30a	0.038973846
161	0x3d09db3c	0.033656344
162	0xbbd674b0	-0.006544672
163	0x3cb73769	0.022365289
164	0x3d309dc6	0.043119214
165	0x3d372f64	0.04472293
166	0xbca1e9ec	-0.019764863
167	0xbdb7daf1	-0.08977307
168	0xbd85ae7f	-0.06527423
169	0xbe0308e4	-0.1279636
170	0xbd83a8d3	-0.06428685
171	0xbb4df8ca	-0.0031428807
172	0xbcbc3e25	-0.022978852
173	0xbd158135	-0.036500175
174	0xbcc395cf	-0.023875145
175	0x3bdc5e52	0.006725111
176	0x3b88bafe	0.004172682
177	0x3d0cb193	0.034349035
178	0x3d8cb730	0.06870878
179	0xbca6b7b7	-0.020351274
180	0xbccab5e0	-0.024744928
181	0xbdc8d298	-0.098057926
182	0xbd31a79e	-0.043372743
183	0xbdd1a92f	-0.10237347
184	0xb9b19de8	-0.0003387772
185	0x3d1289f7	0.035776105
186	0xbccad066	-0.024757575
187	0x3dc89d3e	0.097956166
188	0xbd61faaf	-0.05517071
189	0x3cf2027f	0.029542206
190	0xbc94d1f2	-0.018166516
191	0x3dab7d96	0.08373563
192	0x3d2f1181	0.042741302
193	0xbe03e198	-0.12879026
194	0x3dce1700	0.10062981
195	0x3d354a68	0.044260412
196	0x3d9a6ffc	0.075408906
197	0x3c51c448	0.012803145
198	0x3c4308ea	0.011903981
199	0xbd16ee27	-0.036848214
200	0xbd48d531	-0.04903144
201	0x3d17dea7	0.037077572
202	0x3c506585	0.012719517
203	0xbdd899f9	-0.10576243
204	0x3d002bad	0.031291652
205	0x3d4dfff4	0.050292924
206	0xbd1c9ad1	-0.038233582
207	0x3e15e1ff	0.14636992
208	0xbc7f88a5	-0.015596543
209	0xbccba7e0	-0.024860322
210	0x3cd3cd55	0.025854746
211	0xbddddb74	-0.10832873
212	0x3c8e9835	0.017406562
213	0x3d024dd8	0.03181252
214	0xbdd9f27c	-0.10641953
215	0xbdff4a6a	-0.12465365
216	0xbce216f1	-0.02759883
217	0xbcd6323b	-0.026146999
218	0x3d7fd432	0.062458225
219	0xbd6c09f1	-0.05762667
220	0x3d1a7b98	0.037715524
221	0x3cb3d6cc	0.02195301
222	0x3cb9c855	0.022678534
223	0xbc70a9e6	-0.014688944
224	0xbd928553	-0.07154336
225	0xbde83cb9	-0.11339707
226	0xbdde2efc	-0.10848805
227	0xbc91f91b	-0.017818978
228	0x3ca3fb7a	0.020017374
229	0x3cfee4b2	0.03111491
230	0x3da431ba	0.08017297
231	0xbd3fea4c	-0.046854302
232	0xbcc1a868	-0.023639873
233	0x3d979863	0.07402112
234	0x3cef2f48	0.02919735
235	0x3b98847e	0.004654466
236	0xba7f5086	-0.0009739477
237	0x3e059afd	0.13047405
238	0xbce75543	-0.028238898
239	0xbc68e36d	-0.014214379
240	0xbb58587c	-0.0033011725
241	0xbd992e31	-0.074795134
242	0x3d1cde2e	0.038297825
243	0x3d651a57	0.055933323
244	0x3c92e60f	0.017931966
245	0xbda63d6d	-0.08117185
246	0x3d217199	0.039414976
247	0x3d2cbc74	0.04217191
248	0x3c8ad1a2	0.016945664
249	0x3db143cc	0.08655509
250	0xbd90e67a	-0.0707521
251	0x3cc59c86	0.024122488
252	0x3dff7bbf	0.124747746
253	0x3e15705c	0.14593643
254	0xbe03bb63	-0.12864451
255	0x3d281e9c	0.041044816
